trained_model_cnn5x5_c1_landmask_none.pth (torch, 448717 bytes, 44 tensors)

0.weight f4 [148, 2, 2, 2]
0.013923948 0.24818109 -0.2953268 -0.23983172 -0.11415765 0.034392286 -0.0010395573 0.21159148
-0.08076878 0.07374236 -0.07797087 -0.0808949 -0.51256007 -0.1808491 -0.15691254 0.078935534
0.16199209 0.2315375 -0.20965143 -0.10190317 0.04230327 0.31448263 -0.052408643 0.3700424
-0.087015785 0.06316625 0.34837094 -0.33169028 -0.046920937 -0.09059336 -0.15977973 0.30704778
-0.26856703 -0.22589806 -0.1990718 -0.33288088 -0.20483363 0.29477817 0.17968547 0.17962624
0.019079976 -0.12617491 0.07827519 -0.2512929 -0.22133322 -0.19323482 0.21646003 0.1946019
-0.120217815 4.87403e-05 0.26533842 0.41223022 0.034893688 -2.1919202e-05 0.17840226 -0.2642266
0.13669012 -0.1887982 -0.17557195 -0.17578538 0.14401196 0.092734024 -0.2857839 0.08858793
0.19619255 -0.22028778 0.07900511 -0.03168776 0.22856963 0.23095068 -0.29409826 -0.16746375
0.108403176 0.27743456 0.27533722 0.3163888 0.02698427 -0.3261784 0.033802785 -0.27898663
-0.3048427 0.34393612 0.29611453 -0.33808312 0.12326589 -0.016038368 -0.021935638 -0.07196525
0.14383443 -0.312738 0.087237716 0.11076646 0.28624362 0.137272 -0.31335133 -0.18354666
0.22104964 0.14526023 -0.22548154 -0.21959455 0.26359645 0.15794083 -0.21272773 -0.14514187
-0.045150843 0.04927822 -0.8777656 -0.010766576 -0.00020731422 -0.04612686 -0.12444343 0.048964847
-0.25965837 0.30461392 0.2457319 -0.2740133 -0.051856697 -0.009350269 0.064342454 0.023200616
0.13936432 0.027469078 -0.12378326 0.120740645 -0.558917 -0.13429162 0.04988025 0.09586028
-0.029745346 -0.05564093 -0.14431556 0.1807686 -0.24800631 0.024512747 0.2565488 -0.016210975
0.011135739 -0.059697807 0.07745576 0.19994974 0.44774625 0.07355248 0.42140013 -0.18871431
-0.2690538 -0.14387596 0.25813442 0.004308495 -0.15022178 -0.26699647 -0.321415 -0.370179
-0.061905544 0.18266812 0.22853893 -0.37753186 0.20228645 -0.16471827 -0.08996566 -0.015012627
0.026953198 -0.006226185 -0.33812448 -0.513636 -0.05844831 -0.018776659 -0.15357299 0.112461105
-0.23666863 0.007274563 0.33926654 -0.17393194 0.33755895 0.0026825275 -0.42066842 0.16353859
-0.02930086 -0.1460713 0.2987338 -0.29533485 0.056228846 -0.08876861 0.25536698 0.0608205
0.15797646 0.10166224 -0.15614226 -0.07266888 -0.3744632 0.13967381 0.21582295 0.18027158
-0.25715405 0.12458104 -0.24709994 -0.027556662 -0.16336164 0.11773109 -0.27663195 -0.059104577
0.05616001 0.2636325 -0.24572968 -0.19862033 -0.24291548 0.23555747 -0.16819999 0.30526406
0.09639688 0.036356755 -0.03102155 -0.06626421 0.08812258 -0.10738353 -0.015444867 0.060681805
-0.26734507 -0.18400332 0.3206498 -0.26539162 -0.07175835 0.3404067 0.13354939 -0.045172907
-0.29606572 0.18585463 -0.22795013 -0.04791381 -0.13954508 -0.0715148 0.025303025 0.31408215
-0.039123856 0.27852282 0.20278156 -0.25330853 0.21428183 -0.20777513 -0.13622835 0.1533802
0.06860388 0.2509738 -0.13857715 -0.020150252 0.23713434 -0.33466864 0.3004301 -0.25850284
0.032231033 -0.06446617 -0.17514254 0.036670584 0.28047574 -0.095070004 -0.24056399 -0.09052076
00000000: 4521 643c 2f23 7e3e 1335 97be 7296 75be
00000010: 7ccb e9bd edde 0c3d c141 88ba 70ab 583e
00000020: 1a6a a5bd 3c06 973d 31af 9fbd 3aac a5bd
00000030: 2337 03bf 8230 39be aead 20be f4a8 a13d
00000040: 41e1 253e 2b18 6d3e ddae 56be 9cb2 d0bd
00000050: 3246 2d3d de03 a13e 72aa 56bd 3376 bd3e
00000060: 5535 b2bd 4f5d 813d ad5d b23e 4fd3 a9be
00000070: 2b30 40bd 0389 b9bd 4c9d 23be 5e35 9d3e
00000080: 9e81 89be d251 67be 7ad9 4bbe 5d6f aabe
00000090: e8bf 51be 2aed 963e 78ff 373e f1ef 373e
000000a0: 9c4d 9c3c ff33 01be be4e a03d 77a9 80be
000000b0: 2da5 62be 59df 45be b3a7 5d3e b845 473e
000000c0: c234 f6bd 806e 4c38 70da 873e d70f d33e
000000d0: afec 0e3d 21df b7b7 15af 363e b548 87be
000000e0: 7ff8 0b3e 5154 41be 22c9 33be 1501 34be
000000f0: df77 133e 56eb bd3d 4452 92be 976d b53d
00000100: b3e6 483e 1f93 61be 6ecd a13d 06cb 01bd
00000110: 280e 6a3e 567e 6c3e 0c94 96be 9e7b 2bbe
00000120: 7c02 de3d e70b 8e3e 00f9 8c3e b6fd a13e
00000130: 1e0e dd3c db00 a7be ca74 0a3d 56d7 8ebe
00000140: 5814 9cbe 6518 b03e 539c 973e 3b19 adbe
00000150: d472 fc3d e562 83bc 5eb2 b3bc 8462 93bd
00000160: 5549 133e 321f a0be b0a9 b23d 87d9 e23d
00000170: 868e 923e 0891 0c3e 966f a0be a8f3 3bbe
00000180: d65a 623e 19bf 143e a2e4 66be 65dd 60be
00000190: 1df6 863e 3ebb 213e 4cd5 59be 12a0 14be
000001a0: 17f0 38bd f5d7 493d 3fb5 60bf 4b66 30bc
000001b0: 7d62 59b9 85ef 3cbd 32dc febd 5d8f 483d
000001c0: f1f1 84be 5bf6 9b3e 25a1 7b3e 794b 8cbe
000001d0: b067 54bd df31 19bc fac5 833d 380f be3c
000001e0: 85b5 0e3e d506 e13c 1482 fdbd df46 f73d
000001f0: 2f15 0fbf be83 09be 3c4f 4c3d 6552 c43d
00000200: 83ac f3bc bee7 63bd 75c7 13be 671b 393e
00000210: 5ef5 7dbe f5ce c83c 5d5a 833e e1cc 84bc
00000220: ad72 363c b085 74bd 20a1 9e3d a0bf 4c3e
00000230: ff3e e53e afa2 963d c2c1 d73e 533e 41be
00000240: 6bc1 89be 3854 13be 322a 843e 472e 8d3b
00000250: bdd3 19be c3b3 88be 8290 a4be 1a88 bdbe
00000260: ab90 7dbd 5a0d 3b3e 1c06 6a3e db4b c1be
00000270: 2e24 4f3e e8ab 28be ea3f b8bd 85f7 75bc
00000280: f4cc dc3c 0605 ccbb a71e adbe a67d 03bf
00000290: 7f67 6fbd 82d1 99bc 3d42 1dbe 0252 e63d
000002a0: 4359 72be 755f ee3b 58b4 ad3e 371b 32be
000002b0: 87d4 ac3e 58cd 2f3b da61 d7be a976 273e
000002c0: 5b08 f0bc b793 15be a3f3 983e 2136 97be
000002d0: 3850 663d 51cc b5bd 76bf 823e eb1e 793d
000002e0: 95c4 213e 4b34 d03d c2e3 1fbe 6cd3 94bd
000002f0: a4b9 bfbe a706 0f3e b100 5d3e 1d99 383e
00000300: b2a9 83be 5824 ff3d c407 7dbe 82be e1bc
00000310: 4648 27be ff1c f13d b4a2 8dbe a417 72bd
00000320: 0a08 663d d7fa 863e 90a0 7bbe 2163 4bbe
00000330: d6be 78be fa35 713e 9e3c 2cbe 924b 9c3e
00000340: ba6b c53d d2ea 143d e820 febc 88b5 87bd
00000350: 9c79 b43d e5eb dbbd 780c 7dbc 7c8d 783d
00000360: 74e1 88be 5e6b 3cbe 362c a43e 69e1 87be
00000370: 0bf6 92bd c949 ae3e 2cc1 083e 3a07 39bd
00000380: ed95 97be ad50 3e3e c26b 69be 4541 44bd
00000390: e8e4 0ebe 5a76 92bd 4a48 cf3c 60cf a03e
000003a0: 5640 20bd 8b9a 8e3e f8a5 4f3e a8b1 81be
000003b0: b26c 5b3e 01c3 54be 727f 0bbe b30f 1d3e
000003c0: 3180 8c3d a37f 803e 2be7 0dbe 2412 a5bc
000003d0: 58d3 723e b059 abbe f9d1 993e 7c5a 84be
000003e0: b004 043d d706 84bd 9158 33be e533 163d
000003f0: 849a 8f3e 10b4 c2bd 6856 76be f362 b9bd

0.bias f4 [148]
-0.34725422 -0.19102094 6.90319e-06 0.2915909 0.27016655 -0.5208926 4.8365814e-06 0.26272392
0.04459082 0.2590456 0.06284324 -0.20992951 0.29668146 -2.3356167e-06 0.6181698 4.7938492e-08
0.10265419 0.09704486 0.35606277 -0.3580758 -0.029022591 -0.039728317 -0.18992487 0.37611878
-3.6690117e-06 -0.23082872 -0.08211097 -0.23660979 0.05248176 -0.29256734 -0.16488303 -0.37821144
0.0018275126 0.2336968 -0.27944666 -1.814273e-06 0.36081553 7.7445753e-07 -0.10340634 2.6250687e-08
4.106131e-06 0.09532936 -0.121660165 0.0024690263 0.24812363 -7.6304485e-07 0.23130967 0.24957162
-7.541621e-07 -0.018073602 0.08163059 -0.29250857 0.054264326 0.0033352599 0.28075376 -0.30159348
-0.27304572 0.18590145 0.029035475 -0.30136248 -0.020544035 -0.38149425 -0.27235335 -0.118582875
0.46511117 -0.017960899 0.001131186 0.37474316 0.08291648 -0.40646818 0.24573152 3.1549785e-06
0.13715777 -0.39972398 0.21643037 0.2587585 -0.30946854 8.090687e-08 0.37431973 -0.2587093
0.057933476 0.14000353 0.14539897 0.33723697 0.25292227 0.9204936 -2.1279398e-06 0.47690892
-0.35636747 -0.2381256 -7.7773564e-07 -0.0755138 0.33827525 -4.9840496e-06 0.23115218 0.5162862
-0.3528321 -2.203692e-06 1.8863492e-06 0.062206656 0.47010118 -0.017854296 -0.0020562033 0.22106494
-0.0022570684 -0.19611149 0.24826439 0.21823633 -0.092581555 -6.781142e-07 -0.16259243 -0.2854672
3.04119e-07 -0.108152054 0.21196207 -0.28373468 3.746754e-06 1.1881829e-06 0.17232516 0.2939664
0.17321706 4.369029e-06 -0.236169 -0.3734008 -0.4442077 1.5333412e-06 0.5743275 1.0684685e-06
6.541046e-06 -0.29152638 0.03758474 0.19163081 -0.32577717 -0.20373929 0.25172594 -3.7282623e-06
3.756577e-06 3.018751e-06 -3.977034e-07 -1.7729395e-06 -0.35139638 0.20074072 -0.0031928045 8.404281e-07
-0.18202049 -0.25821242 -1.0408415e-06 -0.31429055
00000000: 4ecb b1be fe9a 43be f3a1 e736 674b 953e
00000010: 4553 8a3e 3859 05bf eb49 a236 c083 863e
00000020: dda4 363d a0a1 843e f5b3 803d c3f7 56be
00000030: a2e6 973e 97bd 1cb6 6040 1e3f eee4 4d33
00000040: 5c3c d23d 75bf c63d dc4d b63e b655 b7be
00000050: c9c0 edbc 29ba 22bd aa7b 42be a492 c03e
00000060: 2439 76b6 5d5e 6cbe cc29 a8bd d649 72be
00000070: 1df7 563d 63cb 95be 19d7 28be eea4 c1be
00000080: 2689 ef3a 374e 6f3e a213 8fbe f281 f3b5
00000090: d0bc b83e 51e4 4f35 b4c6 d3bd df7d e132
000000a0: 66c7 8936 0a3c c33d f728 f9bd 63cf 213b
000000b0: 1f14 7e3e 0bd4 4cb5 71dc 6c3e b48f 7f3e
000000c0: a071 4ab5 170f 94bc f02d a73d afc3 95be
000000d0: 4544 5e3d 6094 5a3b f5be 8f3e 766a 9abe
000000e0: a6cc 8bbe f35c 3e3e cedb ed3c 2f4c 9abe
000000f0: f74b a8bc 3753 c3be e671 8bbe 94db f2bd
00000100: 0d23 ee3e bc22 93bc 4e44 943a 56de bf3e
00000110: 1ed0 a93d 991c d0be 0ba1 7b3e 1eba 5336
00000120: 1673 0c3e 9fa8 ccbe ec9f 5d3e fe7b 843e
00000130: a972 9ebe 06bf ad33 d6a6 bf3e 8c75 84be
00000140: a74b 6d3d 165d 0f3e 78e3 143e 53aa ac3e
00000150: 077f 813e 78a5 6b3f bacd 0eb6 682d f43e
00000160: cc75 b6be 33d7 73be 96c5 50b5 fba6 9abd
00000170: 6a32 ad3e a93c a7b6 28b3 6c3e 552b 043f
00000180: 69a6 b4be 24e3 13b6 772e fd35 68cc 7e3d
00000190: 1ab1 f03e 2c43 92bc 5ec1 06bb d95e 623e
000001a0: 53eb 13bb 73d1 48be 0539 7e3e 5879 5f3e
000001b0: 669b bdbd a707 36b5 a17e 26be c228 92be
000001c0: cc45 a334 d37e ddbd 960c 593e ac45 91be
000001d0: be70 7b36 a779 9f35 0276 303e c482 963e
000001e0: d05f 313e ac99 9236 49d6 71be 642e bfbe
000001f0: 316f e3be 34cd cd35 2107 133f 4c68 8f35
00000200: 287b db36 f242 95be 75f2 193d de3a 443e
00000210: 44cc a6be 08a1 50be 39e2 803e 0f33 7ab6
00000220: 8019 7c36 bf95 4a36 f083 d5b4 bdf5 edb5
00000230: 3aea b3be fa8e 4d3e 5f3e 51bb c799 6135
00000240: 9463 3abe 6b34 84be 0bb3 8bb5 b1ea a0be

2.weight f4 [148]
0.9282638 0.84826696 0.9851686 1.1331135 0.86340517 0.95833015 0.9585961 0.8495303
1.0207814 0.7868338 1.1481241 0.9795614 0.9776079 0.93272096 1.2601217 0.9988258
1.0041758 0.86800414 0.9122886 0.9459659 0.87470746 0.97227347 0.94755316 1.0047762
0.97501874 0.924289 0.92824113 0.8555762 0.92361605 0.8872036 0.9377993 0.9938294
0.9181683 1.139279 0.8782593 0.9932669 1.0271028 1.024941 0.911751 1.0108318
0.9693338 0.88897645 0.90956146 0.959485 0.9231919 0.94173425 0.9114515 0.84207356
0.94794184 0.9524885 0.93937516 0.87876946 1.0322624 0.9154784 1.0506729 0.85400236
0.9299373 0.97465837 1.0126249 0.9621437 0.9064892 0.9658089 0.954738 0.9434275
1.1665528 0.93030757 0.95381117 0.89762 0.9305866 0.94320214 0.97349304 0.9632032
0.8591383 0.9333212 0.9609554 0.99332386 0.86451787 0.9720133 1.0431057 0.9091153
1.0347389 0.95470595 1.1177739 0.8719072 0.93243194 1.4798759 1.0399486 1.1036816
0.9301787 0.87793756 0.97575545 1.012096 0.91697556 1.0019242 0.8462366 1.2668545
0.89449215 1.0255455 0.98308855 0.9486379 1.1922504 0.94072133 0.9534451 0.9404991
0.98984814 0.91588694 0.9060466 0.9066096 0.9535556 0.9871913 0.9245382 0.90238935
0.93540984 0.89389473 0.87983155 0.94417304 0.93196535 1.0895638 0.9108984 1.0306209
1.0780518 1.0329291 0.90433645 0.93841743 0.9145791 1.0128105 1.2943524 1.1554698
1.0955317 0.9084096 0.89131683 0.9053111 0.8642955 0.8864605 0.9946832 0.9758344
1.0646272 0.9853233 0.9983101 0.90358543 0.8479951 1.2234387 0.9779404 1.0273783
0.9478651 0.9518579 1.0270789 0.9419382
00000000: b2a2 6d3f 0628 593f 0234 7c3f dd09 913f
00000010: 1f08 5d3f 2055 753f 8e66 753f d17a 593f
00000020: f7a8 823f f16d 493f bbf5 923f 89c4 7a3f
00000030: 8344 7a3f cdc6 6e3f ab4b a13f 0cb3 7f3f
00000040: d588 803f 8535 5e3f bf8b 693f d22a 723f
00000050: d4ec 5f3f eae6 783f d892 723f 829c 803f
00000060: d49a 793f 349e 6c3f 36a1 6d3f 0b07 5b3f
00000070: 1a72 6c3f c61f 633f 9d13 703f 9b6b 7e3f
00000080: 140d 6b3f e5d3 913f 9ad5 603f bd46 7e3f
00000090: 1b78 833f 4431 833f 8368 693f f062 813f
000000a0: 4326 783f f693 633f 05d9 683f cfa0 753f
000000b0: 4e56 6c3f 7f15 713f e354 693f 2292 573f
000000c0: 51ac 723f 49d6 733f e47a 703f 09f7 603f
000000d0: 2d21 843f cb5c 6a3f 737c 863f e69f 5a3f
000000e0: 5f10 6e3f 3683 793f b19d 813f 0d4f 763f
000000f0: ad0f 683f 413f 773f b669 743f 7784 713f
00000100: 9a51 953f a328 6e3f f82c 743f 6dca 653f
00000110: ec3a 6e3f b275 713f d736 793f 7c94 763f
00000120: 7df0 5b3f 23ee 6e3f 2c01 763f 794a 7e3f
00000130: 0b51 5d3f ddd5 783f 7d84 853f c8bb 683f
00000140: 5372 843f 9c67 743f 3713 8f3f 4f35 5f3f
00000150: dcb3 6e3f 936c bd3f 091d 853f 7045 8d3f
00000160: 3120 6e3f 84c0 603f 1ccb 793f 5d8c 813f
00000170: e9be 6a3f 0d3f 803f f6a2 583f 4a28 a23f
00000180: 70fd 643f 1345 833f b1ab 7b3f efd9 723f
00000190: a99b 983f 1dd3 703f fa14 743f 8dc4 703f
000001a0: b066 7d3f 9177 6a3f acf2 673f 9117 683f
000001b0: 381c 743f 92b8 7c3f 89ae 6c3f fd02 673f
000001c0: 0577 6f3f 49d6 643f a43c 613f 53b5 713f
000001d0: 4895 6e3f d476 8b3f a330 693f 63eb 833f
000001e0: 9afd 893f 0537 843f 9882 673f 203c 703f
000001f0: db21 6a3f c6a3 813f 57ad a53f 6fe6 933f
00000200: 623a 8c3f 888d 683f 572d 643f 78c2 673f
00000210: 7842 5d3f 13ef 623f 8fa3 7e3f 49d0 793f
00000220: b445 883f 263e 7c3f 4091 7f3f 6051 673f
00000230: 3516 593f a499 9c3f 4d5a 7a3f 2281 833f
00000240: 4aa7 723f f6ac 733f 5277 833f dd22 713f

2.bias f4 [148]
0.13345066 -0.05519805 0.15168686 -0.006242142 0.017149609 0.13066933 0.12951541 0.043595277
-0.12747839 0.2187909 0.034614358 0.07443709 -0.123613514 0.17996266 -0.01340317 0.087043256
0.07787949 0.1420231 0.06848686 -0.040007416 0.020869136 0.17353886 0.102704376 0.08892101
-0.11233011 0.030474685 0.10130135 0.08716205 -0.0056484407 0.03355771 0.103821754 0.0215517
-0.007348576 -0.02261863 0.09758179 0.020100236 -0.02786369 0.06952653 0.029123556 0.08416949
0.1827242 -0.030879714 -0.07307515 0.041180234 -0.058042016 0.16884609 0.016203856 -0.06272581
0.04654846 -0.09414674 0.026284527 0.07605753 -0.00090183155 0.08588066 0.036437403 -0.07226702
0.10271292 -0.111639135 0.08438949 0.019337758 0.12363065 0.11532349 0.09764192 0.12175442
0.14093015 0.030679518 0.25112945 -0.056999836 0.14864588 -0.007019624 -0.057309553 0.056595027
0.02080127 -0.009051148 -0.039468 0.13900886 -0.032184917 0.14070159 0.020042151 0.05944891
0.004185727 0.10124576 -0.021158723 -0.0038809231 0.13157782 0.014393378 0.1400699 0.044920217
0.018948007 -0.0059811887 0.10492888 -0.0470335 0.07070061 0.1235369 0.18307127 0.014442938
0.15649351 0.05284988 0.18623908 0.008422035 0.020034695 -0.11873239 0.13403872 -0.036801223
-0.09431758 -0.05025141 -0.021259146 -0.06273572 0.1688962 0.128476 0.028270688 0.13060553
0.038347416 0.19972302 -0.11040376 0.033664662 0.19164066 0.043563113 0.06199969 -0.027554177
0.11778139 0.084910296 0.10503381 0.033606727 0.05714413 0.07664976 -0.078502305 0.12176917
0.10875065 0.032850858 -0.062633514 0.09076047 0.17481935 -0.05689268 -0.018151667 0.11429648
0.07839657 0.10379361 0.049563188 0.10913631 0.092940636 0.0054913945 -0.074486345 0.04439242
0.08723406 0.06320884 0.2109884 0.19307896
00000000: 4aa7 083e 5a17 62bd cd53 1b3e e28a ccbb
00000010: 567d 8c3c 2ece 053e b09f 043e f690 323d
00000020: b289 02be b90a 603e c9c7 0d3d 7972 983d
00000030: 1529 fdbd 2248 383e f898 5bbc bc43 b23d
00000040: 487f 9f3d 816e 113e d742 8c3d d1de 23bd
00000050: c0f5 aa3c 2cb4 313e ac56 d23d 381c b63d
00000060: 540d e6bd 0ca6 f93c 1577 cf3d 0482 b23d
00000070: 8e16 b9bb cf73 093d 80a0 d43d 318d b03c
00000080: 53cc f0bb b54a b9bc f6d8 c73d 40a9 a43c
00000090: 6542 e4bc ed63 8e3d 8694 ee3c 0e61 ac3d
000000a0: 0d1c 3b3e 74f7 fcbc 6da8 95bd 9bac 283d
000000b0: 77bd 6dbd fde5 2c3e f3bd 843c 6476 80bd
000000c0: 99a9 3e3d 02d0 c0bd a652 d73c 0dc4 9b3d
000000d0: e468 6cba 33e2 af3d 633f 153d bb00 94bd
000000e0: 275b d23d 0fa3 e4bd 66d4 ac3d 386a 9e3c
000000f0: 1132 fd3d b92e ec3d 7df8 c73d 625a f93d
00000100: fe4f 103e 9d53 fb3c 0a94 803e a978 69bd
00000110: a036 183e e004 e6bb 6cbd 6abd 30d0 673d
00000120: 6d67 aa3c 444b 14bc 33a9 21bd 5758 0e3e
00000130: 55d4 03bd 1414 103e 702f a43c b380 733d
00000140: 6c28 893b f059 cf3d 0f55 adbc 1657 7ebb
00000150: 56bc 063e 34d2 6b3c 7c6e 0f3e 43fe 373d
00000160: da38 9b3c d9fd c3bb f4e4 d63d 33a6 40bd
00000170: 7bcb 903d ea00 fd3d 0977 3b3e 13a2 6c3c
00000180: d63f 203e 1e79 583d 75b5 3e3e 93fc 093c
00000190: cd1f a43c f829 f3bd 7241 093e e1bc 16bd
000001a0: 9329 c1bd 6cd4 4dbd a927 aebc 967b 80bd
000001b0: 20f3 2c3e 368f 033e ee97 e73c 75bd 053e
000001c0: 2e12 1d3d 3184 4c3e 5e1b e2bd f5e3 093d
000001d0: 733d 443e 3c6f 323d 63f3 7d3d 4cb9 e1bc
000001e0: 5f37 f13d 73e5 ad3d f71b d73d 35a7 093d
000001f0: f70f 6a3d 8dfa 9c3d d1c5 a0bd 1d62 f93d
00000200: a9b8 de3d 9f8e 063d 0046 80bd a0e0 b93d
00000210: d803 333e 4c08 69bd ceb2 94bc 4614 ea3d
00000220: 628e a03d bf91 d43d c502 4b3d dc82 df3d
00000230: a957 be3d 28f1 b33b 4c8c 98bd d4d4 353d
00000240: c5a7 b23d a373 813d 580d 583e 7eb6 453e

2.running_mean f4 [148]
0.040786445 0.12351025 0.18836838 0.2993689 0.5111023 0.02176184 0.18010616 0.32169893
0.058667317 0.4913136 0.075864494 0.00899796 0.31816503 0.25972992 0.61982536 0.12237913
0.11032803 0.292946 0.49301887 0.0029840725 0.2356408 0.032006547 0.05173557 0.39840302
0.14745593 0.051350527 0.007994822 0.08826315 0.1545578 0.019159682 0.048704457 0.012380499
0.16453107 0.23526026 0.09431375 0.05246549 0.36073387 0.0408313 0.030942827 0.015092902
0.15248808 0.24147555 0.29751015 0.081239745 0.2658107 0.24407138 0.4073687 0.61156344
0.20668967 0.08924482 0.15759721 0.010618656 0.07159577 0.105688356 0.2978973 0.047006022
0.064792566 0.20947999 0.07768497 0.023556914 0.2012974 0.011103055 0.03672957 0.03922282
0.4673306 0.040560786 0.20834343 0.3789567 0.14671294 0.007768735 0.26518777 0.2423552
0.25259608 0.009667355 0.25844404 0.26664647 0.12230917 0.036939897 0.38547313 0.07042166
0.106415205 0.16538163 0.15277581 0.43620896 0.3158756 0.91990787 0.027100293 0.4761672
0.010301082 0.11516663 0.031836417 0.022899438 0.356968 0.15091832 0.32860264 0.51564157
0.044075057 0.07252539 0.17400454 0.13684982 0.46918097 0.058599487 0.0640242 0.23886241
0.057218645 0.092891015 0.27326697 0.2691844 0.010012315 0.118431784 0.09392707 0.12676047
0.30900398 0.026561027 0.35754028 0.045452 0.10881071 0.026324285 0.4034806 0.32238635
0.1796736 0.17058581 0.07633768 0.04721217 0.010590997 0.09847158 0.5733663 0.02200907
0.1501118 0.027918791 0.16035928 0.22728834 0.16277201 0.182471 0.27449098 0.1409269
0.02915307 0.11528807 0.1699306 0.23623449 0.14739333 0.2042932 0.035199642 0.08197718
0.035226587 0.01841031 0.16889757 0.030266078
00000000: b00f 273d f1f2 fc3d a4e3 403e e146 993e
00000010: 9ad7 023f e345 b23c c06d 383e b9b5 a43e
00000020: 244d 703d 758d fb3e d85e 9b3d 2e6c 133c
00000030: 87e6 a23e 52fb 843e e0ac 1e3f e9a1 fa3d
00000040: aaf3 e13d 05fd 953e f86c fc3e 6e90 433b
00000050: d24b 713e 4c19 033d ade8 533d 7bfb cb3e
00000060: b0fe 163e ee54 523d b7fc 023c 4fc3 b43d
00000070: 6644 1e3e c4f4 9c3c 537e 473d 94d7 4a3c
00000080: d57a 283e 11e8 703e 9127 c13d 0ee6 563d
00000090: 1cb2 b83e b93e 273d d07b fd3c 3848 773c
000000a0: d625 1c3e 5e45 773e 4053 983e 0661 a63d
000000b0: 5718 883e d9ed 793e a192 d03e 6c8f 1c3f
000000c0: 75a6 533e fdc5 b63d 2a61 213e dff9 2d3c
000000d0: cea0 923d 2373 d83d ff85 983e 6389 403d
000000e0: f7b1 843d ec81 563e 4c19 9f3d 6efa c03c
000000f0: e820 4e3e 97e9 353c bf71 163d 1ca8 203d
00000100: f545 ef3e 1123 263d fb57 553e 9d06 c23e
00000110: eb3b 163e df90 fe3b b1c6 873e f62b 783e
00000120: 4654 813e d363 1e3c c752 843e e385 883e
00000130: 3b7d fa3d 4a4e 173d bc5c c53e 3b39 903d
00000140: 37f0 d93d cd59 293e 4371 1c3e c856 df3e
00000150: 72ba a13e 157f 6b3f 6f01 de3c 30cc f33e
00000160: dfc5 283c 7bdc eb3d e766 023d 9a97 bb3c
00000170: 82c4 b63e 558a 1a3e 9b3e a83e 1601 043f
00000180: 0c88 343d 3188 943d 3f2e 323e 5c22 0c3e
00000190: 7d38 f03e 0406 703d 1f1f 833d 5998 743e
000001a0: 195e 6a3d a53d be3d a6e9 8b3e 8ad2 893e
000001b0: b10a 243c 5d8c f23d d65c c03d 7fcd 013e
000001c0: c535 9e3e 8396 d93c 850f b73e e02b 3a3d
000001d0: 26d8 de3d 07a6 d73c 0295 ce3e d30f a53e
000001e0: 5bfc 373e 0cae 2e3e ee56 9c3d 8c61 413d
000001f0: dc85 2d3c 78ab c93d 22c8 123f 5d4c b43c
00000200: e8b6 193e f3b5 e43c 3935 243e 46be 683e
00000210: b5ad 263e aed9 3a3e 158a 8c3e 244f 103e
00000220: 6bd2 ee3c 271c ec3d 4a02 2e3e 74e7 713e
00000230: 47ee 163e 3d32 513e 802d 103d a7e3 a73d
00000240: c149 103d 38d1 963c 7cf3 2c3e 91f0 f73c

2.running_var f4 [148]
0.036562692 0.16608635 0.21837619 0.020518228 0.7457007 0.01966411 0.21665764 0.12277524
0.0050088493 0.68945867 0.0059413137 0.0036144217 0.044065263 0.4870349 0.0061129397 0.11308226
0.0057000187 0.31272382 0.46410644 0.0012779145 0.41996625 0.009575522 0.03845411 0.05101731
0.15388963 0.044105366 0.0017520527 0.099844486 0.100783125 0.011802936 0.037266426 0.007004569
0.16973466 0.0064995126 0.12494575 0.018965766 0.02362568 0.013131532 0.013154407 0.0015241455
0.14009324 0.20290713 0.6396666 0.044522822 0.041623894 0.4010427 0.4695311 1.1953465
0.27208406 0.05871878 0.06526537 0.005879668 0.007906111 0.07293509 0.042317253 0.040943556
0.06515582 0.038091578 0.024839448 0.018700995 0.273443 0.007499108 0.029423447 0.021327125
0.008757954 0.015391244 0.3174311 0.049300425 0.06432744 0.0047409143 0.038546484 0.3935726
0.19100864 0.005778284 0.05044789 0.029159678 0.18637584 0.0082664965 0.036347438 0.080706604
0.03441164 0.027189089 0.008893137 0.24793267 0.1011741 0.0041742446 0.0049856603 0.031487443
0.0061321356 0.14581841 0.007410424 0.008932406 0.058660902 0.15826255 0.2022516 0.0065831337
0.041980185 0.0400838 0.21339177 0.07165792 0.0075948546 0.027114518 0.028709572 0.024297541
0.023341384 0.09257969 0.05738598 0.0647387 0.0026323274 0.08675696 0.09696002 0.18619685
0.5581489 0.011273431 0.30050337 0.03772866 0.07727225 0.0051235813 0.6138469 0.059040695
0.010529096 0.18441562 0.08535149 0.0485217 0.0069689914 0.06759272 0.0036970472 0.0038394467
0.15079647 0.020657515 0.108918466 0.047222205 0.28297716 0.31860453 0.045527767 0.12091056
0.0062078484 0.08465368 0.2046031 0.39253098 0.2664292 0.008232255 0.009424487 0.05287071
0.020772193 0.009797637 0.20107074 0.023487154
00000000: c3c2 153d 8a12 2a3e 029e 5f3e d815 a83c
00000010: 3ee6 3e3f a116 a13c 80db 5d3e 9671 fb3d
00000020: 4621 a43b 5d80 303f 5aaf c23b efdf 6c3b
00000030: c77d 343d a35c f93e 0e4f c83b ac97 e73d
00000040: 39c7 ba3b 561d a03e 5c9f ed3e b27f a73a
00000050: d105 d73e a6e2 1c3c 0f82 1d3d 87f7 503d
00000060: 3e95 1d3e d4a7 343d 22a5 e53a 447b cc3d
00000070: 6267 ce3d 1a61 413c aea4 183d 9586 e53b
00000080: ecce 2d3e ddf9 d43b 8fe3 ff3d 185e 9b3c
00000090: a48a c13c a325 573c 9585 573c d6c5 c73a
000000a0: 9a74 0f3e e3c6 4f3e 31c1 233f 905d 363d
000000b0: d17d 2a3d 7855 cd3e 6166 f03e 1d01 993f
000000c0: 9a4e 8b3e 1a83 703d daa9 853d 3baa c03b
000000d0: a288 013c fe5e 953d db54 2d3d 6eb4 273d
000000e0: 6a70 853d ea05 1c3d 197c cb3c d432 993c
000000f0: b900 8c3e 14bb f53b 7109 f13c 39b6 ae3c
00000100: 867d 0f3c 8e2b 7c3c 5486 a23e 3eef 493d
00000110: 1bbe 833d ac59 9b3b ebe2 1d3d 5982 c93e
00000120: c597 433e c257 bd3b 72a2 4e3d 47e0 ee3c
00000130: 4fd9 3e3e 3370 073c 0de1 143d 8149 a53d
00000140: 38f3 0c3d a7bb de3c 85b4 113c 10e2 7d3e
00000150: 5e34 cf3d 1ac8 883b c05e a33b faf8 003d
00000160: 15f0 c83b 6c51 153e 24d3 f23b 3a59 123c
00000170: 6a46 703d 940f 223e 0b1b 4f3e 54b7 d73b
00000180: 6af3 2b3d e92e 243d 5f83 5a3e 63c1 923d
00000190: 42de f83b 441f de3c 5630 eb3c a30b c73c
000001a0: 6e36 bf3c 6c9a bd3d 900d 6b3d b995 843d
000001b0: 2083 2c3b a2ad b13d fa92 c63d 63aa 3e3e
000001c0: d9e2 0e3f 32b4 383c 94db 993e 5e89 1a3d
000001d0: ea40 9e3d b7e3 a73b 1225 1d3f a8d4 713d
000001e0: 3b82 2c3c 73d7 3c3e c3cc ae3d b1be 463d
000001f0: 235c e43b 0d6e 8a3d 294a 723b 3a9f 7b3b
00000200: 646a 1a3e f339 a93c a510 df3d 126c 413d
00000210: 62e2 903e 2220 a33e 537b 3a3d f59f f73d
00000220: 356b cb3b e95e ad3d 7a83 513e d2f9 c83e
00000230: 6869 883e 94e0 063c 2a69 1a3c f58e 583d
00000240: 722a aa3c 4586 203c 7de5 4d3e 2268 c03c

3.weight f4 [74, 148, 2, 2]
-0.0022487629 -0.0023110926 -0.05680311 -0.016482702 -0.023555115 0.0059698727 0.010045803 0.03561801
-0.042905875 -0.05298392 -0.007931513 0.030812988 -0.04217403 0.052408796 0.025262557 -0.011588238
-0.02608576 0.04936305 -0.017819773 0.07707525 0.025146624 0.06437211 0.0024778903 0.049478475
0.015385137 -0.057431486 0.0052031353 -0.022975523 -0.02027991 0.024032814 -0.030034363 0.04282183
-0.04482914 -0.008962578 -0.001531793 0.022137366 -0.0035851633 0.028900206 -0.009759516 0.029970491
-0.057702433 -0.012910866 -0.0035308008 0.036714517 0.031618334 0.021312192 0.0033155687 0.035826076
0.009207633 -0.024800455 0.04134365 0.0140509065 0.07978137 -0.024155455 0.04033982 -0.03012334
-0.06657385 -0.0015157909 0.020659596 0.04885905 0.035318296 0.047172546 0.03212469 -0.060060643
-0.005419738 -0.014560605 -0.0021114864 6.810851e-05 0.016584175 -0.026318854 -0.02198747 0.014240456
1.361722e-05 0.010897727 0.024264297 -0.011244872 0.046481643 -0.0008192972 0.01588493 0.004419824
0.0263588 -0.0005237371 0.02822993 -0.004141074 -0.023684872 0.025230546 -0.004093079 0.043689113
-0.00959973 -0.018007565 0.022455612 0.021123452 -0.055044256 -0.0038396958 0.016276835 0.028848514
0.0632069 -0.04803089 0.020742135 -0.052347187 0.020468274 -0.011423708 -0.0528858 0.021232378
0.05255147 -0.052553058 0.010675649 0.03197033 -0.031382404 0.00353253 0.0071464516 -0.0025966442
-0.05485408 0.039931323 -0.031321276 0.034352746 0.014046221 -0.02437827 0.04697669 -0.016799068
0.059965253 0.0036420473 0.04529408 -0.03601577 -0.0013888417 0.02473338 0.017454922 -0.032879625
-0.04566807 0.031239448 -0.027224965 -0.011162611 -0.023229666 -0.025105396 0.018971564 0.0144256465
0.04665234 -0.010108968 0.015132642 0.021645594 0.03565168 0.0084519535 -0.027736044 -0.032799806
-0.056377813 -0.018849963 -0.0070001693 -0.017902354 0.015073524 0.024346367 0.026399111 -0.037071005
0.027087219 0.030460058 0.010014358 -0.049074136 0.04371969 -0.033754524 0.03991046 -0.01291577
0.044055145 -0.036897358 -0.020135418 -0.013219247 -0.02728594 -0.010940383 0.027933171 0.0137258675
0.037573576 -0.049366962 0.009089178 -0.02977108 -0.041419063 0.017177815 -0.044086076 0.018463373
-0.021595972 0.033021312 -0.008472657 -0.016192103 0.032565888 -0.033382587 0.03515073 -0.0264741
-0.038105935 0.018908875 -0.0124813495 -0.0023531695 0.04045878 0.007985795 -0.0034958492 -0.02499081
0.022574255 -0.010569433 -0.044715177 -0.034693874 0.021931859 -0.00946551 0.03740979 -0.032665785
0.04636179 -0.014758862 0.019792913 -0.021042246 -0.021274395 0.03181503 -0.015572005 -0.027823623
0.044786677 -0.004754924 -0.011281689 -0.016494125 0.0005994655 0.036708523 0.0145233935 0.008288746
-0.01651799 0.010595282 0.023148447 0.012306363 0.024854202 -0.04568249 0.02847039 -0.059908688
-0.011470879 0.013870956 -0.011020488 -0.03263724 -0.013089797 0.013712557 0.026977498 0.0026044718
-0.009808364 -0.0535093 0.042665523 0.013910178 -0.024718009 0.03799601 -0.05619043 0.011829683
0.047487512 0.01481901 2.09824e-05 0.01805209 0.0012612665 -0.04813791 -0.0014754132 0.082503594
-0.015724218 0.026215006 0.044608697 0.021762725 -0.011288001 -0.002251737 -0.035084054 0.03617308
00000000: fb5f 13bb b375 17bb 61aa 68bd bb06 87bc
00000010: a8f6 c0bc ec9e c33b 2797 243c 31e4 113d
00000020: 12be 2fbd ab05 59bd 2df3 01bc 856b fc3c
00000030: adbe 2cbd 9baa 563d 6cf3 ce3c 98dc 3dbc
00000040: ceb1 d5bc e930 4a3d c6fa 91bc a1d9 9d3d
00000050: 4b00 ce3c 86d5 833d 1a64 223b f1a9 4a3d
00000060: f111 7c3c 473d 6bbd 107f aa3b 2a37 bcbc
00000070: 0e22 a6bc 77e0 c43c a00a f6bc f165 2f3d
00000080: c39e 37bd c7d7 12bc 72c6 c8ba 6c59 b53c
00000090: 0ff5 6abb 20c0 ec3c 61e6 1fbc ad84 f53c
000000a0: 6359 6cbd 1988 53bc 0265 67bb f661 163d
000000b0: 3a82 013d e896 ae3c 034a 593b 5dbe 123d
000000c0: 9ddb 163c 532a cbbc f657 293d c635 663c
000000d0: 6a64 a33d a9e1 c5bc 5e3b 253d 39c5 f6bc
000000e0: df57 88bd 81ad c6ba 503e a93c 6d20 483d
000000f0: eba9 103d 0038 413d 2e95 033d 2602 76bd
00000100: 0f98 b1bb 9b8f 6ebc dd60 0abb 7ad5 8e38
00000110: 89db 873c a39a d7bc 111f b4bc cd50 693c
00000120: 8475 6437 618c 323c ebc5 c63c 693c 38bc
00000130: 8963 3e3d 1bc6 56ba 1d21 823c 2cd4 903b
00000140: 69ee d73c 674b 09ba 7442 e73c d9b1 87bb
00000150: c706 c2bc 4ab0 ce3c 3c1f 86bb 5bf3 323d
00000160: 3048 1dbc 9a84 93bc d5f4 b73c 170b ad3c
00000170: 1676 61bd 68a3 7bbb ff56 853c b853 ec3c
00000180: 9f72 813d 0abc 44bd 69eb a93c 016a 56bd
00000190: 15ad a73c 812a 3bbc c89e 58bd 86ef ad3c
000001a0: 3640 573d e041 57bd ebe8 2e3c 52f3 023d
000001b0: d68a 00bd 0582 673b c82c ea3b 762c 2abb
000001c0: acae 60bd 078f 233d bd4a 00bd 77b5 0c3d
000001d0: 1f22 663c f0b4 c7bc a16a 403d 339e 89bc
000001e0: 209e 753d 6aaf 6e3b 4986 393d 4685 13bd
000001f0: cb09 b6ba a89d ca3c a0fd 8e3c c9ac 06bd
00000200: 710e 3bbd dfe9 ff3c e406 dfbc 62e3 36bc
00000210: 244c bebc d5a9 cdbc 416a 9b3c 8c59 6c3c
00000220: 8616 3f3d 16a0 25bc e7ee 773c 1a52 b13c
00000230: 7f07 123d 107a 0a3c b336 e3bc 1759 06bd
00000240: 6cec 66bd 3d6b 9abc ad61 e5bb f5a7 92bc
00000250: f1f6 763c 0872 c73c f342 d83c c4d7 17bd
00000260: 04e6 dd3c 5f87 f93c 4313 243c f601 49bd
00000270: 6b13 333d 2f42 0abd 2779 233d aa9c 53bc
00000280: 2b73 343d af21 17bd 08f3 a4bc 8a95 58bc
00000290: c386 dfbc 4b3f 33bc 1bd4 e43c 76e2 603c
000002a0: c0e6 193d 0335 4abd c7ea 143c 7be2 f3bc
000002b0: 09a7 29bd 7db8 8c3c 9a93 34bd 8040 973c
000002c0: 09ea b0bc 5b41 073d e6d0 0abc 4da5 84bc
000002d0: cf63 053d 2ebc 08bd 36fa 0f3d 36e0 d8bc
000002e0: f814 1cbd c9e6 9a3c 937e 4cbc a237 1abb
000002f0: 1bb8 253d dad6 023c 9e1a 65bb 87b9 ccbc
00000300: a5ed b83c 6a2b 2dbc 4327 37bd 2a1b 0ebd
00000310: 71aa b33c 3a15 1bbc 023b 193d 8fcc 05bd
00000320: dce5 3d3d 27cf 71bc bf24 a23c ca60 acbc
00000330: a447 aebc 7a50 023d b921 7fbc 5eee e3bc
00000340: 3c72 373d 32cf 9bbb d5d6 38bc b01e 87bc
00000350: 7325 1d3a ad5b 163d 87f3 6d3c 85cd 073c
00000360: bc50 87bc d597 2d3c d0a1 bd3c a1a0 493c
00000370: 0a9b cb3c 901d 3bbd bc3a e93c d062 75bd
00000380: 5bf0 3bbc 0243 633c 478f 34bc a0ae 05bd
00000390: 9776 56bc a2aa 603c eaff dc3c c9af 2a3b
000003a0: 43b3 20bc 912c 5bbd 0bc2 2e3d 84e7 633c
000003b0: 6c7d cabc b4a1 1b3d f027 66bd 49d1 413c
000003c0: 4482 423d 6fcb 723c 5c03 b037 fae1 933c
000003d0: 1551 a53a 422c 45bd a762 c1ba a5f7 a83d
000003e0: 13d0 80bc dac0 d63c 9cb7 363d be47 b23c
000003f0: 4ff1 38bc e191 13bb 4cb4 0fbd 392a 143d

3.bias f4 [74]
0.1296825 0.10324273 0.10597274 0.08615502 0.0027043 0.070398994 0.0037339737 0.04221906
0.12370471 0.030737463 0.1164711 0.013452379 0.07250916 -0.00953665 0.15329742 0.1297909
-0.012743465 0.02941983 -0.074218474 0.08385986 0.14974746 -0.06128355 0.012583529 0.43497398
-0.048125 0.21482821 0.12050897 0.14741817 -0.008133356 0.1666009 0.03641216 0.024750361
-0.035870846 0.09250863 0.13851358 -0.14256321 -0.04343713 0.1006429 0.1509381 0.082171485
0.15786636 0.048041493 -0.06744676 0.051180813 0.08757881 -9.640488e-05 0.0013420212 0.12928738
-0.0019574636 0.057435185 0.010272918 -0.054271348 0.022210618 0.15606518 0.059213918 0.10714478
0.102113 0.013126228 0.20398925 0.0065793484 0.03495862 0.0027816352 0.035183012 0.01784964
-0.016288422 0.16053843 0.022791922 0.052547008 -0.034539167 0.049519844 0.03317539 -0.01983285
-0.004129346 0.03710466
00000000: 7dcb 043e ed70 d33d 3c08 d93d 0b72 b03d
00000010: a03a 313b 592d 903d afb5 743b e5ed 2c3d
00000020: e558 fd3d 22cd fb3c 6688 ee3d 5e67 5c3c
00000030: af7f 943d 9c3f 1cbc 00fa 1c3e e8e7 043e
00000040: f7c9 50bc db01 f13c dbff 97bd b8be ab3d
00000050: 6657 193e 7604 7bbd 252b 4e3c e9b4 de3e
00000060: b81e 45bd edfb 5b3e 68cd f63d caf4 163e
00000070: c541 05bc 6d99 2a3e eb24 153d 45c1 ca3c
00000080: 4fed 12bd 2a75 bd3d 81d6 0d3e 17fc 11be
00000090: 22eb 31bd dd1d ce3d 848f 1a3e 8649 a83d
000000a0: b8a7 213e 28c7 443d 8721 8abd f9a2 513d
000000b0: 855c b33d fa2c cab8 c2e6 af3a e963 043e
000000c0: ca48 00bb 2841 6b3d be4f 283c a24b 5ebd
000000d0: 0bf3 b53c 8dcf 1f3e 4b8a 723d b96e db3d
000000e0: 9f20 d13d 640f 573c 8fe2 503e 9397 d73b
000000f0: c530 0f3d 184c 363b 101c 103d 6939 923c
00000100: 4c6f 85bc 3064 243e 20b6 ba3c 883b 573d
00000110: f178 0dbd 52d5 4a3d ebe2 073d 8078 a2bc
00000120: 774f 87bb 0efb 173d

5.weight f4 [74]
1.0012501 0.9817628 1.0217149 0.99234784 0.96588916 0.98117876 0.9745344 0.95218676
1.0230067 0.9566787 0.9627631 0.9781466 1.0262209 0.9973994 1.1331654 1.0052171
0.93824524 1.0170925 0.9525967 0.9948147 0.97237426 0.9146836 0.9555873 1.1732382
0.9450415 1.1049607 1.0345392 0.96867865 1.0299277 1.1834193 0.9976454 0.9724917
0.98239154 0.9258089 1.160319 1.1000638 0.9443514 0.99145025 1.010328 0.98673844
1.0698175 0.95949095 0.9268249 0.95730543 0.95265824 0.94753957 0.98435146 1.0200745
0.96927464 0.993169 0.9499973 0.9433327 0.963836 1.0579494 1.0287101 0.99854404
0.9338564 1.0001107 1.0663095 0.8690936 1.0422097 0.963118 0.96037453 1.0184509
0.9253777 1.0462127 0.9064643 0.9472196 0.9043023 0.9270597 0.97885245 0.96746445
0.88921934 0.9941414
00000000: f728 803f cf54 7b3f 8ec7 823f 820a 7e3f
00000010: 8344 773f 882e 7b3f 167b 793f 83c2 733f
00000020: e2f1 823f e5e8 743f a477 763f d167 7a3f
00000030: 355b 833f 9155 7f3f 900b 913f f4aa 803f
00000040: d730 703f 1630 823f 61dd 733f 2dac 7e3f
00000050: 85ed 783f b428 6a3f 5fa1 743f ab2c 963f
00000060: 3dee 713f 5a6f 8d3f c86b 843f 53fb 773f
00000070: acd4 833f 497a 973f b065 7f3f 37f5 783f
00000080: 037e 7b3f d001 6d3f 5585 943f e4ce 8c3f
00000090: 03c1 713f afcf 7d3f 6e52 813f e49a 7c3f
000000a0: c8ef 883f 33a1 753f 6644 6d3f f811 753f
000000b0: 69e1 733f f491 723f 75fe 7b3f cd91 823f
000000c0: 6222 783f 5340 7e3f 0633 733f 407e 713f
000000d0: f5bd 763f e36a 873f c6ac 833f 95a0 7f3f
000000e0: 3711 6f3f a103 803f d47c 883f eb7c 5e3f
000000f0: 2167 853f e78e 763f 1bdb 753f 995c 823f
00000100: 8ee5 6c3f 4cea 853f 0b0e 683f fc7c 723f
00000110: 5b80 673f c953 6d3f 1396 7a3f c0ab 773f
00000120: e1a3 633f 0d80 7e3f

5.bias f4 [74]
-0.029526938 0.11743971 0.011606825 0.065840185 -0.088963866 0.18014507 -0.036831923 0.07660166
-0.0045090383 0.04482008 -0.036386453 0.038169727 0.25069073 0.18834606 0.09475766 -0.026134344
0.013026994 -0.08625035 0.10862239 0.17371209 0.19626167 0.2123487 0.066043474 0.116523266
-0.067165226 0.03100904 0.054301538 -0.098152295 0.12858668 0.0057671475 -0.14068374 0.0832178
0.13006917 0.1300116 0.06378387 -0.21622138 -0.034156766 -0.09408293 -0.00072690373 0.09873717
0.15388055 0.15174043 -0.055983085 -0.1455206 0.013450717 0.02852842 0.14412914 0.07526562
-0.015308464 0.12642339 -0.010969901 -0.0759023 0.00834805 -0.08389451 -0.028038252 0.07851385
-0.11589128 0.07725437 0.076639526 -0.02791776 0.029219307 -0.04181811 0.060519293 -0.09170763
0.04967226 0.15018572 0.055937707 -0.14309083 0.043208852 0.11304806 0.018327685 0.042633027
0.107666165 0.14339145
00000000: 7ae2 f1bc 3b84 f03d 8d2a 3e3c 38d7 863d
00000010: b032 b6bd f377 383e 12dd 16bd 55e1 9c3d
00000020: 8ec0 93bb 4395 373d f609 15bd dc57 1c3d
00000030: 895a 803e cadd 403e 4e10 c23d b117 d6bc
00000040: 2c6f 553c 06a4 b0bd 6a75 de3d 95e1 313e
00000050: d2f8 483e f071 593e cd41 873d c0a3 ee3d
00000060: ec8d 89bd ac06 fe3c 4a6b 5e3d 1204 c9bd
00000070: 3aac 033e 57fa bc3b 660f 10be 186e aa3d
00000080: da30 053e c321 053e 1ea1 823d 2369 5dbe
00000090: f7e7 0bbd 8dae c0bd af8d 3eba b736 ca3d
000000a0: dd92 1d3e d861 1b3e 854e 65bd 5a03 15be
000000b0: 6560 5c3c 6fb4 e93c 9796 133e dd24 9a3d
000000c0: 5ad0 7abc 2275 013e 1abb 33bc aa72 9bbd
000000d0: 42c6 083c e3d0 abbd 7ab0 e5bc dfcb a03d
000000e0: 6858 edbd 8a37 9e3d 2ff5 9c3d c9b3 e4bc
000000f0: 545d ef3c 7749 2bbd 14e3 773d 36d1 bbbd
00000100: 2475 4b3d 49ca 193e f01e 653d 6786 12be
00000110: c4fb 303d be85 e73d f123 963c f89f 2e3d
00000120: 1480 dc3d 35d5 123e

5.running_mean f4 [74]
0.41286388 0.42750406 0.5100973 0.29915413 0.30060944 0.31574133 0.3958132 0.28815776
0.5652308 0.2922045 0.30443197 0.20008035 0.45536885 0.3466902 0.5574819 0.42605358
0.21609923 0.28734964 0.18085036 0.4337044 0.5761386 0.25064352 0.20766145 0.7444976
0.17074822 0.4602441 0.46466273 0.32103702 0.4119495 0.47314224 0.45062742 0.32821003
0.28241774 0.46910065 0.46158746 0.09979161 0.19960043 0.54135865 0.48365408 0.39332286
0.48099974 0.43454826 0.013858779 0.55464184 0.37337273 0.29323015 0.23664436 0.36094326
0.191099 0.3598576 0.25525358 0.16267209 0.288571 0.5247604 0.29765287 0.50479543
0.34801707 0.3526383 0.61622393 0.14402112 0.41754967 0.28725335 0.14749941 0.36609638
0.21872105 0.61636215 0.29876146 0.35724115 0.06481249 0.4544022 0.35594738 0.1739099
0.16200396 0.36375168
00000000: e562 d33e d0e1 da3e bd95 023f bb2a 993e
00000010: 7be9 993e d9a8 a13e 07a8 ca3e 6a89 933e
00000020: f7b2 103f d49b 953e 82de 9b3e dde1 4c3e
00000030: 1b26 e93e 6181 b13e 22b7 0e3f b223 da3e
00000040: 1e49 5d3e 7e1f 933e d630 393e 810e de3e
00000050: d27d 133f 5954 803e 34a5 543e 6597 3e3f
00000060: 9fd8 2e3e 1da5 eb3e 46e8 ed3e f75e a43e
00000070: 0beb d23e b33f f23e a3b8 e63e 250b a83e
00000080: 0f99 903e f62d f03e 3155 ec3e 8b5f cc3d
00000090: 0e64 4c3e 7b96 0a3f 82a1 f73e 9d61 c93e
000000a0: 9945 f63e 1c7d de3e ef0f 633c 02fd 0d3f
000000b0: b62a bf3e 4322 963e e652 723e 8ecd b83e
000000c0: 75af 433e 413f b83e 99b0 823e 8393 263e
000000d0: 94bf 933e b356 063f f565 983e 463a 013f
000000e0: 4b2f b23e 028d b43e dac0 1d3f 467a 133e
000000f0: 12c9 d53e df12 933e 160a 173e fc70 bb3e
00000100: 69f8 5f3e e9c9 1d3f 43f7 983e 50e8 b63e
00000110: 69bc 843d 68a7 e83e bc3e b63e 7015 323e
00000120: 5ee4 253e a93d ba3e

5.running_var f4 [74]
0.45217693 0.51834375 0.40238583 0.11533055 0.49417603 0.37412983 0.881947 0.40092972
1.2405237 0.40726784 0.14708096 0.33673525 0.823754 0.81132483 0.13675986 0.26727203
0.32094076 0.4301639 0.46089274 0.7173107 0.5198224 0.50508934 0.22341356 0.22308531
0.35022277 0.3366101 0.32904118 0.16087072 0.93519354 0.36975196 0.61944497 0.45706642
0.4560091 0.3592122 0.34986055 0.016601147 0.33597398 0.9640384 0.58994603 0.25977492
0.63606775 0.6189563 0.0003644281 1.5930674 0.3415816 0.62172717 0.2582409 0.3303432
0.090616725 0.33172598 0.46257597 0.1920376 0.2717749 0.20320362 0.3026041 0.5091439
0.05284385 0.7516532 0.27782035 0.095126085 0.47474158 0.45508668 0.16579802 0.6528153
0.3629814 0.41618177 0.40986657 0.35566488 0.07594001 0.9282986 0.5631546 0.26539084
0.2594594 0.7395052
00000000: bc83 e73e 2db2 043f 8405 ce3e 6c32 ec3d
00000010: a404 fd3e f28d bf3e 47c7 613f a946 cd3e
00000020: 7bc9 9e3f 6985 d03e 649c 163e 9068 ac3e
00000030: 8be1 523f fcb2 4f3f c70a 0c3e e1d7 883e
00000040: 5952 a43e 713e dc3e 22fa eb3e ada1 373f
00000050: 1513 053f 894d 013f 86c6 643e 7a70 643e
00000060: 6650 b33e 2958 ac3e 1678 a83e 4bbb 243e
00000070: d868 6f3f 2150 bd3e f293 1e3f 9c04 ea3e
00000080: 067a e93e a9ea b73e ec20 b33e 21ff 873c
00000090: c804 ac3e 38cb 763f b406 173f 3801 853e
000000a0: 56d5 223f ec73 1e3f b610 bf39 a2e9 cb3f
000000b0: c9e3 ae3e 8329 1f3f 2738 843e be22 a93e
000000c0: 4395 b93d fdd7 a93e c2d6 ec3e 81a5 443e
000000d0: 1426 8b3e 9c14 503e edee 9a3e 4157 023f
000000e0: cb72 583d 586c 403f 783e 8e3e 77d1 c23d
000000f0: 5411 f33e 1f01 e93e f5c6 293e e71e 273f
00000100: b3d8 b93e c715 d53e 08da d13e b519 b63e
00000110: 7086 9b3d faa4 6d3f e62a 103f 4fe1 873e
00000120: ddd7 843e 3650 3d3f

6.weight f4 [74, 74, 2, 2]
-0.017022418 -0.06541437 0.012355175 -0.041649677 0.010790734 -0.019223433 0.05381786 -0.023373714
0.020250583 -0.045475423 0.0355248 0.013241549 0.018372891 -0.10123003 0.019290918 0.020877186
0.01992207 -0.006497168 0.055012994 -0.036015764 0.0056060515 -0.0016045066 0.07643898 -0.07492468
-0.009824831 -0.031825796 -0.04295211 0.06983787 0.046015654 -0.021875123 -0.02087775 -0.029502686
-0.004809656 -0.06791142 -0.025054332 0.061553728 -0.029972598 0.017376836 -0.0061634816 0.0839171
-0.0049573258 -0.038954727 0.0069957958 0.057599775 -0.005561522 0.040171087 -0.009327705 0.011458167
-0.0119042415 -0.026711274 0.03892353 -0.034381665 0.012741826 0.090928875 -0.14182132 0.078578524
-0.08030973 0.11255092 -0.0070153233 0.029911 -0.023953313 0.058007505 0.056256644 -0.07759412
-0.041905276 0.028178032 -0.00979999 -0.015398612 0.07200334 0.0036087232 0.03250418 -0.0109939035
0.040959567 0.026656773 0.015222703 -0.027390113 0.07977511 0.10210777 0.04859678 -0.02284104
0.0053842445 0.113895856 0.0053791814 -0.0754619 0.1109194 -0.00019120717 0.027090471 -0.06305677
0.030957954 -0.063464105 0.049040865 -0.028157586 -0.023779212 -0.0041139554 0.004429081 -0.002538595
-0.025081893 0.003056891 -0.0013096307 -0.038046576 -0.01664164 -0.032582562 -0.032563977 0.08062849
-0.060447708 0.07227924 -0.021918723 0.054851696 -0.04606899 0.048117597 -0.0062008505 0.0064972476
0.055223286 -0.035563964 -0.004476925 -0.04206189 0.056017175 -0.03844328 -0.009679902 0.08176435
-0.05819815 0.06290366 -0.041667737 -0.024959117 -0.0009452222 -0.05666229 -0.009397454 -0.013548537
-0.031022556 0.036752257 -0.033690933 0.042215664 0.007651421 -0.06013463 -0.0007509183 0.052060347
0.013712782 0.051922854 0.059294567 -0.041656032 0.014080956 -0.048171863 -0.015015044 0.012424391
-0.02637186 0.010331813 0.023106148 -0.03461467 0.025558125 0.11909042 -0.062028185 -0.087855205
0.043823473 0.028337032 -0.044760026 0.05372799 -0.06085436 0.014321749 0.04917338 0.029928029
0.070181176 -0.04333071 -0.027895963 -0.051586524 -0.0056417137 0.006940637 0.04265978 0.031252038
-0.002680857 -0.0143984705 0.0007391415 -0.035663906 0.015156924 0.036124773 0.093819246 0.07839706
-0.029057303 -0.01000093 -0.00118208 -0.03416526 -0.039874773 -0.035285387 -0.03812385 0.042697743
-0.016988225 -0.010637779 0.060111437 0.019980092 -0.043736864 0.022970408 -0.048967093 0.025905993
0.037324894 -0.01992314 -0.057957757 -0.019726105 0.028725583 -0.04292229 -0.05604503 0.0077760727
-0.017309876 0.0049895262 0.0009157768 -0.094811045 0.023405386 -0.0039972803 -0.014755078 -0.018358372
0.04455421 -0.0032120452 -0.033512875 -0.0633771 -0.045069616 0.027379408 0.011334792 -0.025254332
-0.00020855694 0.035597656 -0.039370514 0.007494203 0.045158222 -0.06647151 0.05691867 -0.0077345953
-0.010353685 0.03248869 0.040244255 0.008067528 -0.05999409 0.0650394 0.10608013 0.055923775
0.042290635 -0.025978737 -0.01930241 -0.015948018 -0.03147461 -0.04232397 0.0008367146 -0.010692939
-0.014665263 -0.004214175 -0.0026145685 0.0013342156 0.006919884 -0.06684887 -0.0016899254 0.032501187
-0.021662794 -0.035421155 0.017457327 0.028573262 -0.06935626 0.022693641 -0.014286333 0.014541185
00000000: 9972 8bbc f8f7 85bd 5c6d 4a3c da98 2abd
00000010: 9ecb 303c 767a 9dbc 1e70 5c3d 3b7a bfbc
00000020: 8de4 a53c 7044 3abd 7482 113d 15f3 583c
00000030: bf82 963c b151 cfbd fd07 9e3c a206 ab3c
00000040: 9c33 a33c 32e6 d4bb 4e55 613d 4485 13bd
00000050: f8b2 b73b 4f4e d2ba 0a8c 9c3d 1c72 99bd
00000060: 54f8 20bc c45b 02bd 8dee 2fbd 2807 8f3d
00000070: e97a 3c3d 7533 b3bc d107 abbc 9eaf f1bc
00000080: 529a 9dbb 2415 8bbd be3e cdbc c31f 7c3d
00000090: 1889 f5bc de59 8e3c 08f7 c9bb bbdc ab3d
000000a0: 1071 a2bb fe8e 1fbd fd3c e53b beed 6b3d
000000b0: 6e3d b6bb 708a 243d 3bd3 18bc 09bb 3b3c
000000c0: 020a 43bc 9ad1 dabc 486e 1f3d cad3 0cbd
000000d0: 17c3 503c eb38 ba3d 9c39 11be c7ed a03d
000000e0: 6d79 a4bd 1981 e63d cce0 e5bb ea07 f53c
000000f0: bd39 c4bc 4799 6d3d 5e6d 663d aae9 9ebd
00000100: dea4 2bbd 9ed5 e63c 2390 20bc 764a 7cbc
00000110: 7d76 933d 5480 6c3b 1a23 053d c61f 34bc
00000120: 38c5 273d 4e5f da3c a568 793c 3b61 e0bc
00000130: 2261 a33d e11d d13d 6b0d 473d 221d bbbc
00000140: 516e b03b 3b42 e93d d843 b03b c58b 9abd
00000150: b629 e33d c97e 48b9 d6ec dd3c e823 81bd
00000160: 899b fd3c 78f9 81bd 13df 483d bdaa e6bc
00000170: 9fcc c2bc 5cce 86bb d321 913b 8f5e 26bb
00000180: 8b78 cdbc 1f56 483b eaa7 abba bad6 1bbd
00000190: 0c54 88bc 4b75 05bd ce61 05bd 8d20 a53d
000001a0: 0498 77bd 2307 943d e58e b3bc 2cac 603d
000001b0: d6b2 3cbd f516 453d 8130 cbbb dde6 d43b
000001c0: d031 623d 85ab 11bd 2bb3 92bb 1749 2cbd
000001d0: 4472 653d b376 1dbd 7498 1ebc 1174 a73d
000001e0: 2f61 6ebd a2d3 803d caab 2abd 1077 ccbc
000001f0: cac8 77ba b816 68bd c7f7 19bc affa 5dbc
00000200: 0423 febc 8989 163d 81ff 09bd 55ea 2c3d
00000210: c5b8 fa3b bb4f 76bd 46d9 44ba 3b3d 553d
00000220: 94ab 603c 0fad 543d dcde 723d 849f 2abd
00000230: cfb3 663c dc4f 45bd a901 76bc ac8f 4b3c
00000240: cd09 d8bc c446 293c 1b49 bd3c 1dc8 0dbd
00000250: 465f d13c aee5 f33d 4411 7ebd 6eed b3bd
00000260: 3e80 333d 1023 e83c 4a56 37bd e111 5c3d
00000270: 6c42 79bd c5a5 6a3c 076a 493d a02b f53c
00000280: 26bb 8f3d 8b7b 31bd 1386 e4bc 644c 53bd
00000290: 20de b8bb 486e e33b 05bc 2e3d 2302 003d
000002a0: 51b1 2fbb 90e7 6bbc f2c2 413a 5114 12bd
000002b0: bf54 783c 92f7 133d 4e24 c03d a38e a03d
000002c0: 9509 eebc f1da 23bc 06f0 9aba dff0 0bbd
000002d0: bb53 23bd 6987 10bd c127 1cbd d4e3 2e3d
000002e0: e42a 8bbc 144a 2ebc 6937 763d 4aad a33c
000002f0: 6d25 33bd 702c bc3c b891 48bd ce38 d43c
00000300: fde1 183d da35 a3bc 1d65 6dbd a498 a1bc
00000310: ea51 eb3c 48cf 2fbd 798f 65bd 6dce fe3b
00000320: 71cd 8dbc 2e7f a33b be10 703a 4b2c c2bd
00000330: a7bc bf3c 9efb 82bb 48bf 71bc 4c64 96bc
00000340: 7a7e 363d 2d81 52bb cc44 09bd dacb 81bd
00000350: eb9a 38bd c84a e03c 90b5 393c 2ce2 cebc
00000360: 14b0 5ab9 d9ce 113d fa42 21bd ee91 f53b
00000370: d4f7 383d 3722 88bd 8d23 693d 7d72 fdbb
00000380: 81a2 29bc dc12 053d 29d7 243d aa2d 043c
00000390: 5dbc 75bd 6033 853d 8a40 d93d 5410 653d
000003a0: f238 2d3d 5cd1 d4bc 1620 9ebc 6ba5 82bc
000003b0: 85eb 00bd e65b 2dbd f756 5b3a 7031 2fbc
000003c0: 9246 70bc 1017 8abb 2e59 2bbb d9e0 ae3a
000003d0: 32c0 e23b 0fe8 88bd 7d80 ddba f71f 053d
000003e0: 2c76 b1bc c615 11bd ab02 8f3c 7912 ea3c
000003f0: a80a 8ebd 04e8 b93c 3911 6abc 273e 6e3c

6.bias f4 [74]
-0.04179234 -0.0023174142 -0.06325443 -0.07980304 0.1722054 0.011866955 0.17707074 -0.042106003
0.078530185 -0.048460104 -0.016930066 0.049694944 0.08394392 0.022897074 0.030223303 -0.07850605
-0.25555316 -0.018224463 0.012716006 -0.08562297 0.018915324 0.036602978 -0.0746506 -0.07912433
0.054276068 0.048302982 -0.06031569 -0.0070721493 -0.05837657 -0.005843529 -0.06965354 0.042676095
-0.089773186 -0.037800778 0.017587945 0.025475195 -0.21414295 -0.11599163 0.07365488 0.05629552
-0.20059118 -0.24722056 0.17712082 -0.022543626 -0.059906483 -0.0676439 -0.042660207 0.058174744
0.026905442 -0.023411771 -0.075458586 -0.0105372 0.05131207 -0.0049286624 0.10844862 -0.101522274
-0.08671941 -0.11059583 -0.020962829 0.08579854 -0.06460477 -0.095267765 0.019289853 0.07989403
0.020088635 0.027364122 -0.019998554 0.035569325 0.07063441 0.054378364 0.092342 0.002297322
0.011222555 0.023439277
00000000: 722e 2bbd c2df 17bb 8a8b 81bd c76f a3bd
00000010: 9d56 303e 9e6d 423c 0852 353e 5877 2cbd
00000020: 6fd4 a03d 1a7e 46bd ecb0 8abc ed8c 4b3d
00000030: caea ab3d a592 bb3c dc96 f73c c8c7 a0bd
00000040: ddd7 82be 784b 95bc cb56 503c 185b afbd
00000050: 4ff4 9a3c 01ed 153d 6ae2 98bd f00b a2bd
00000060: 9550 5e3d 59d9 453d 960d 77bd 7dbd e7bb
00000070: 451c 6fbd 137b bfbb 84a6 8ebd 21cd 2e3d
00000080: 01db b7bd fdd4 1abd 9814 903c 5bb1 d03c
00000090: 4a48 5bbe 058d edbd 5fd8 963d 2296 663d
000000a0: c667 4dbe 6327 7dbe 295f 353e 69ad b8bc
000000b0: 8060 75bd e388 8abd 78bc 2ebd a448 6e3d
000000c0: cd68 dc3c 0bca bfbc 088a 9abd 38a4 2cbc
000000d0: 9b2c 523d 9e80 a1bb 4f1a de3d e9ea cfbd
000000e0: f299 b1bd 1180 e2bd 3dba abbc 25b7 af3d
000000f0: 814f 84bd bf1b c3bd c105 9e3c 7b9f a33d
00000100: ec90 a43c b92a e03c 02d4 a3bc 24b1 113d
00000110: c6a8 903d d9bb 5e3d cd1d bd3d ab8e 163b
00000120: cfde 373c ba03 c03c

8.weight f4 [74]
1.0269915 0.9814028 0.900079 0.9802602 1.043119 0.9407844 0.97105855 0.9408186
1.0153693 0.97033006 1.0064293 0.9016466 0.99026096 0.97952384 1.0400054 0.9528056
1.1947536 0.93176 0.987898 0.93126285 0.9568944 0.9685033 0.95182776 0.91917485
0.9158886 0.9838451 0.9949956 0.9812989 0.9790301 0.94116926 0.96452177 1.012451
0.9941938 1.0413319 0.94857365 0.9819995 0.9590406 0.9442366 0.96803004 1.0524542
0.9266147 1.0396478 1.0224193 0.98083663 1.0140164 0.9226704 1.0044135 0.96210444
1.0414377 0.9372714 0.977837 0.99743325 1.0199935 0.9570087 0.9999026 0.9133739
0.9904293 0.9820884 0.9981387 1.0043886 1.0283668 0.9969536 1.0094942 0.9956552
1.047328 0.9748998 0.9639511 0.9519255 1.0306759 0.9749293 0.95390266 0.9932098
0.9608018 1.0689487
00000000: 7574 833f 373d 7b3f 946b 663f 55f2 7a3f
00000010: ec84 853f 3fd7 703f 4b97 783f 7dd9 703f
00000020: 9ff7 813f 8d67 783f add2 803f 50d2 663f
00000030: be81 7d3f 13c2 7a3f e61e 853f 11eb 733f
00000040: b0ed 983f d387 6e3f e2e6 7c3f 3e67 6e3f
00000050: 08f7 743f d5ef 773f fcaa 733f 0b4f 6b3f
00000060: ad77 6a3f 46dd 7b3f 08b8 7e3f 6836 7b3f
00000070: b7a1 7a3f 78f0 703f e6ea 763f ff97 813f
00000080: 7c83 7e3f 5d4a 853f b9d5 723f 5264 7b3f
00000090: af83 753f 7db9 713f d1d0 773f d2b6 863f
000000a0: 9f36 6d3f 2e13 853f a3de 823f 1c18 7b3f
000000b0: 4acb 813f 2134 6c3f 9f90 803f 7a4c 763f
000000c0: d54d 853f 05f1 6f3f 8753 7a3f c957 7f3f
000000d0: 268f 823f 86fe 743f 9ef9 7f3f dfd2 693f
000000e0: c68c 7d3f 256a 7b3f 0586 7f3f ce8f 803f
000000f0: 86a1 833f 5a38 7f3f 1b37 813f 42e3 7e3f
00000100: d80e 863f 0993 793f 80c5 763f 64b1 733f
00000110: 30ed 833f f794 793f f732 743f ff42 7e3f
00000120: 1bf7 753f 50d3 883f
