trained_model_cnn5x5_c2_landmask_none.pth (torch, 357133 bytes, 44 tensors)

0.weight f4 [74, 2, 2, 2]
0	0x3d479080	0.04872179
1	0x3e4a7f9f	0.19775246
2	0xbe6440e3	-0.22290377
3	0xbe5c6848	-0.21524155
4	0xbe126558	-0.14296472
5	0x3dd01c59	0.10161657
6	0xbd219afb	-0.03945444
7	0x3ea303e3	0.31838903
8	0xbcd3869b	-0.02582102
9	0x3d850374	0.06494799
10	0xbdc518bf	-0.096238606
11	0xbd51573f	-0.051108595
12	0xbedd7583	-0.43253717
13	0xbe53f220	-0.20697832
14	0xbdfff118	-0.12497157
15	0x3dd8be2c	0.105831474
16	0x3e029238	0.1275109
17	0x3e6f9f4d	0.23400612
18	0xbe8ad2cc	-0.2711395
19	0xbe098665	-0.13430174
20	0x3d2a4de4	0.04157819
21	0x3e83895a	0.25690728
22	0xbe45f46c	-0.19331521
23	0x3e435563	0.19075541
24	0xbdc6b395	-0.09702221
25	0x3cb086c8	0.021548644
26	0x3eb122a6	0.34596747
27	0xbe913b29	-0.28365448
28	0xbe0a3f71	-0.13500763
29	0xbe039d47	-0.12852965
30	0xbd9f4d27	-0.077783875
31	0x3eac5a01	0.33662418
32	0xbe6babde	-0.23014781
33	0xbe4573e4	-0.1928249
34	0xbe81873c	-0.25298488
35	0xbe8760c2	-0.26441008
36	0xbe60e05f	-0.21960591
37	0x3e900819	0.28131178
38	0x3e4ba451	0.198869
39	0x3e2232e1	0.15839721
40	0x3c947b91	0.018125327
41	0xbcd1b4e2	-0.025598947
42	0x3d98c706	0.07459836
43	0xbe782839	-0.24234094
44	0xbe88a93e	-0.26691622
45	0xbe86f073	-0.26355323
46	0x3e9c7468	0.3055756
47	0x3e365fd3	0.17809992
48	0xbe4acb2a	-0.19804063
49	0xbbba81b0	-0.0056917295
50	0x3e6865b5	0.22695048
51	0x3ea0ae7a	0.31383115
52	0x3db5a00e	0.08868419
53	0x3c075d30	0.008261964
54	0x3e5b598e	0.21420881
55	0xbe8ef20b	-0.2791904
56	0x3e806a58	0.25081134
57	0xbe899121	-0.26868537
58	0xbdf1cdbb	-0.11806818
59	0xbdda8b2a	-0.10671075
60	0x3e22596b	0.15854423
61	0x3dd64b92	0.10463633
62	0xbe4ae722	-0.19814733
63	0x3db98ffe	0.090606675
64	0x3e195290	0.14972901
65	0xbd913237	-0.07089656
66	0x3b8d5583	0.0043131723
67	0x3d8f29c4	0.06990388
68	0x3e6c390d	0.23068638
69	0x3eace5e8	0.33769155
70	0xbe9ec70a	-0.3101123
71	0xbe43dc3d	-0.19126983
72	0x3cdcc7af	0.026950685
73	0x3e9d7d14	0.3075949
74	0x3e15fbaa	0.14646783
75	0x3ea5001f	0.32226655
76	0x3d6eed8e	0.05833202
77	0xbeb82ff5	-0.35974088
78	0xbdc5b66e	-0.09653936
79	0xbe808e02	-0.25108343
80	0xbeaa9994	-0.33320296
81	0x3e9af72d	0.30266705
82	0x3e982a98	0.29719996
83	0xbeb7f6a0	-0.35930347
84	0x3dcca7b5	0.09992925
85	0x3bf8ad09	0.007588987
86	0xbd080ad5	-0.033213455
87	0xbe4d6604	-0.20058447
88	0x3e74b880	0.23898506
89	0xbe8f6df4	-0.28013575
90	0x3dc53388	0.096289694
91	0xbd75471d	-0.059882272
92	0x3e720fc5	0.23638828
93	0x3e4a0b56	0.19730887
94	0xbe8dfebb	-0.27733406
95	0xbe331db3	-0.17491798
96	0x3e99fc8a	0.30075485
97	0x3d45b55b	0.048268657
98	0xbe453b5e	-0.19260928
99	0xbe3c1a27	-0.18369351
100	0x3e990e27	0.2989361
101	0x3e0a1cc7	0.1348754
102	0xbe6512eb	-0.22370498
103	0xbe3b7663	-0.1830688
104	0xbea9551c	-0.33072746
105	0x37c95d9e	2.4004661e-05
106	0xbf2c5bfb	-0.6732785
107	0xbdd5c356	-0.10437648
108	0xbc2d5f7b	-0.010581846
109	0x37f4d67f	2.918695e-05
110	0xbdcab7c6	-0.09898333
111	0x3d334126	0.043763302
112	0xbe88a2e2	-0.2668677
113	0x3e966eed	0.29381505
114	0x3e78b60a	0.24288192
115	0xbe84c794	-0.25933516
116	0xbd7d6a83	-0.061869156
117	0x3cae89c7	0.021305932
118	0x3d740239	0.059572432
119	0x398230a0	0.0002483176
120	0x3e309a4b	0.17246358
121	0x3da7dc38	0.081963
122	0xbe12f31b	-0.1435055
123	0x3e432f67	0.19061051
124	0xbeaf8184	-0.342785
125	0xbe3e8ab1	-0.18607594
126	0xbe26a22c	-0.16272801
127	0xbe183290	-0.14863038
128	0xbd65f954	-0.05614598
129	0xbe8556ff	-0.26042935
130	0xbdbaf99f	-0.09129643
131	0x3df6e661	0.1205566
132	0xbe656b6a	-0.22404256
133	0xbd46d9eb	-0.048547667
134	0x3e9ac0e1	0.3022528
135	0xbb5adee0	-0.0033397004
136	0xbc65a695	-0.014016767
137	0xbdc8d41a	-0.0980608
138	0xbd543a2b	-0.051813286
139	0x3d8b578c	0.068038076
140	0x3eef37c6	0.4672224
141	0x3dcd9520	0.10038209
142	0x3ee1d4b5	0.44107595
143	0xbe40b5fc	-0.18819422
144	0xbea11800	-0.31463623
145	0xbe057801	-0.13034059
146	0x3e94f76d	0.2909502
147	0xbe094800	-0.13406372
148	0xbe984128	-0.2973721
149	0xbe54d647	-0.20784865
150	0xbeb74a5a	-0.35798913
151	0xbddc9ad4	-0.107717186
152	0xbdb34153	-0.08752694
153	0x3e370e10	0.17876458
154	0x3e711a9a	0.23545304
155	0xbea48c0b	-0.32138094
156	0x3ea0e39d	0.31423655
157	0xbe85b45a	-0.2611416
158	0xbde401dd	-0.11133168
159	0xbd2e083f	-0.042488333
160	0x3c2859d3	0.010275322
161	0xbb95da22	-0.0045731226
162	0xbe7efda3	-0.24901442
163	0xbeabff62	-0.3359328
164	0xbd522b1b	-0.05131064
165	0x3c87f5aa	0.016596634
166	0xbe4227d9	-0.18960513
167	0x3dfbff6b	0.123045765
168	0xbe61a6a9	-0.22036232
169	0x3d3dc660	0.046331763
170	0x3ebc0a56	0.36726636
171	0xbe447382	-0.19184688
172	0x3e9fbe46	0.31199855
173	0x3d259d3e	0.04043316
174	0xbedeedcb	-0.43540797
175	0x3e00e916	0.12588915
176	0xbd6ba2e6	-0.0575284
177	0xbe25fdca	-0.16210094
178	0x3eb1a978	0.34699607
179	0xbe695e59	-0.22789897
180	0x3d6d859e	0.057988755
181	0xbdeb297e	-0.114825234
182	0x3e695bdf	0.22788952
183	0x3d946c7b	0.072472535
184	0x3dc3007b	0.09521576
185	0x3da248dc	0.07924053
186	0xbdaf490b	-0.08558854
187	0x39ba3c3d	0.00035521566
188	0xbec22db7	-0.37925503
189	0x3e0ff668	0.1405884
190	0x3e91e789	0.2849696
191	0x3d4c97f4	0.0499496
192	0xbe5141d6	-0.2043527
193	0x3daed932	0.085375205
194	0xbe55f6e5	-0.20894964
195	0xbdf49127	-0.11941748
196	0xbe739711	-0.23788096
197	0x3e051f6c	0.13000268
198	0xbe848a62	-0.25886828
199	0xbd03a606	-0.032140754
200	0x3d0624e2	0.032750018
201	0x3e8c0419	0.27346876
202	0xbe8d20d1	-0.275641
203	0xbe56d48d	-0.20979519
204	0xbe8f986b	-0.28045973
205	0x3e5efdc8	0.21776497
206	0xbe2d07d0	-0.16897511
207	0x3e50167b	0.20321076
208	0x3d84a819	0.064773746
209	0xbd2bd152	-0.04194767
210	0x3b0d96b0	0.002160471
211	0xbce7e486	-0.02830721
212	0x3de437e0	0.1114347
213	0xbd7094c8	-0.05873564
214	0xbdc0d337	-0.09415286
215	0x3d1cdf04	0.03829862
216	0xbe37fe8a	-0.17968193
217	0xbd9a3879	-0.075303026
218	0x3e8ab46c	0.27090776
219	0xbe4a291f	-0.19742249
220	0xbc424811	-0.011858002
221	0x3f109995	0.5648435
222	0xbcfd6e37	-0.030936344
223	0xbdf9e051	-0.12200988
224	0xbe8f959d	-0.28043833
225	0x3e47b5d4	0.19502956
226	0xbe3a1556	-0.18172202
227	0xbcad6300	-0.021165371
228	0xbe2dcc70	-0.16972518
229	0xbdff7da7	-0.12475138
230	0x3d34b0f7	0.04411408
231	0x3e9682f7	0.29396793
232	0xbe1717b6	-0.14755139
233	0x3e46e507	0.19423304
234	0x3e2757a9	0.16342033
235	0xbe5c7c27	-0.21531735
236	0x3e7613ed	0.24031039
237	0xbe57de33	-0.21080856
238	0xbe318463	-0.17335658
239	0x3e24f0c8	0.16107476
240	0x3d7341bd	0.059388865
241	0x3e67a698	0.22622144
242	0xbe57fa8e	-0.21091673
243	0xbd2c2487	-0.042027023
244	0x3e491e16	0.19640383
245	0xbe9a13c3	-0.30093202
246	0x3e977383	0.29580316
247	0xbe4c17ed	-0.19931002
248	0x3d542fcf	0.051803406
249	0xbdaa6d43	-0.08321621
250	0xbe4b0fb1	-0.19830205
251	0x3c1343cb	0.008988331
252	0x3e9a6158	0.30152392
253	0xbdfd2aa2	-0.12361647
254	0xbe6a5bf7	-0.22886644
255	0xbdc400b7	-0.09570449

0.bias f4 [74]
0	0xbefea3fc	-0.49734485
1	0x3e8ea60b	0.27861056
2	0x3e17b598	0.14815366
3	0x3ed1e737	0.40996715
4	0xbec04bde	-0.37557882
5	0x3ea2532d	0.31704083
6	0x3e9bc05e	0.30420202
7	0x3ec569dc	0.38557327
8	0xbe74c8df	-0.23904751
9	0x35112242	5.406656e-07
10	0xbe06eb10	-0.13175607
11	0x3f73b8ba	0.95203745
12	0x37be9182	2.2717522e-05
13	0x36e03f10	6.6830617e-06
14	0x3f42c9c9	0.7608915
15	0xbde7bbcb	-0.113151155
16	0xbd304e7d	-0.043043602
17	0x37172e51	9.011085e-06
18	0xb77a44ee	-1.491721e-05
19	0xbe142ae7	-0.14469491
20	0x3ea51407	0.32241842
21	0xb5d65e0e	-1.5971616e-06
22	0x3c27e916	0.010248443
23	0x3ee2e2f1	0.44313768
24	0x3e585f93	0.21130209
25	0x3d41086d	0.047127176
26	0x3f157501	0.5838166
27	0x37731594	1.4488953e-05
28	0xbd16e008	-0.036834747
29	0x3f3aa1f2	0.7290336
30	0x3e878d46	0.2647497
31	0xbe99f098	-0.3006637
32	0xbcab2851	-0.020893248
33	0xbe3ff7d9	-0.1874689
34	0x3e721d4c	0.23643988
35	0x3782481f	1.5530792e-05
36	0xbea8c941	-0.32966045
37	0x3b63c006	0.0034751906
38	0x3edfa233	0.43678436
39	0x3dc4f3a0	0.0961678
40	0x3e2f8033	0.17138748
41	0xb68623c6	-3.997676e-06
42	0x3db32f88	0.087493
43	0x37848cab	1.580113e-05
44	0x3718f7a8	9.117568e-06
45	0xbe253e5e	-0.16137072
46	0xbe88b348	-0.2669928
47	0x36e14aa8	6.7142137e-06
48	0x3682d68b	3.899278e-06
49	0xb7b92236	-2.206965e-05
50	0xb69be016	-4.645447e-06
51	0x3dcf8b1a	0.101339534
52	0xbe897b81	-0.26852039
53	0x3e9ed46e	0.31021446
54	0xb7660ee9	-1.371254e-05
55	0x3eb68b43	0.35653123
56	0xbe4f594b	-0.20248906
57	0xb7a6cade	-1.988321e-05
58	0x3e027f44	0.1274386
59	0xb77456f6	-1.45637805e-05
60	0x3e7b4719	0.2453884
61	0xbe2166b1	-0.1576183
62	0xbe2ce307	-0.16883479
63	0xbe278e65	-0.16362913
64	0x3e40f3d9	0.1884302
65	0x3f075ea1	0.5287877
66	0xbe32a0bd	-0.1744413
67	0x375ed0fe	1.3280891e-05
68	0x3621de67	2.4120325e-06
69	0x37952053	1.7777236e-05
70	0x3e891737	0.26775524
71	0xbe72bf11	-0.23705699
72	0xb732c4ba	-1.0655431e-05
73	0x3ee3c2ef	0.4448466

2.weight f4 [74]
0	0x3f74d1a4	0.95632386
1	0x3f66e31e	0.90190303
2	0x3f6c5808	0.92321825
3	0x3f909215	1.1294581
4	0x3f656a24	0.8961508
5	0x3f76a443	0.96344393
6	0x3f705f0b	0.93895024
7	0x3f7005d5	0.937589
8	0x3f68dd2d	0.9096249
9	0x3f7414c8	0.9534421
10	0x3f5d222a	0.86380255
11	0x3fb1c44c	1.388803
12	0x3f86c8fb	1.0530084
13	0x3f7ba6fc	0.9830167
14	0x3faf5c2f	1.3700007
15	0x3f659259	0.89676434
16	0x3f76fb02	0.9647676
17	0x3f76aa7b	0.9635388
18	0x3f7c17ca	0.984738
19	0x3f665e8e	0.8998803
20	0x3f658624	0.8965781
21	0x3f7b0a8a	0.98062956
22	0x3f690015	0.9101575
23	0x3f8183ca	1.0118344
24	0x3f62e3da	0.88628924
25	0x3f5a2078	0.85205793
26	0x3fc39bd6	1.5281932
27	0x3f83b1a5	1.0288588
28	0x3f6c2697	0.92246383
29	0x3fa5c87c	1.2951808
30	0x3f8442a8	1.0332842
31	0x3f681664	0.90659165
32	0x3f6cc4c9	0.9248777
33	0x3f6796e5	0.9046462
34	0x3f7008eb	0.9376361
35	0x3f818739	1.0119392
36	0x3f5b042c	0.8555324
37	0x3f768a73	0.96305007
38	0x3f8bd652	1.092478
39	0x3f76f54e	0.96468055
40	0x3f5ef0e9	0.8708635
41	0x3f6bf1c9	0.9216581
42	0x3f686745	0.90782577
43	0x3f788046	0.9707073
44	0x3f72e77c	0.9488447
45	0x3f65f01d	0.8981951
46	0x3f662983	0.8990709
47	0x3f6b2efc	0.9186857
48	0x3f81bd8f	1.0135974
49	0x3f755d2e	0.95845306
50	0x3f659565	0.8968108
51	0x3f6fe2be	0.93705356
52	0x3f6d5f7e	0.92723835
53	0x3f629361	0.8850613
54	0x3f58c94e	0.84682167
55	0x3f5eeacd	0.8707703
56	0x3f6e4971	0.9308081
57	0x3f79a966	0.97524107
58	0x3f714f6f	0.9426183
59	0x3f829c11	1.0203878
60	0x3f666746	0.9000133
61	0x3f6cb334	0.9246094
62	0x3f63ca0e	0.88980186
63	0x3f667b84	0.9003222
64	0x3f837ba0	1.0272102
65	0x3f8fdf51	1.1240026
66	0x3f6b8db0	0.9201307
67	0x3f763ab1	0.96183306
68	0x3f7e92ce	0.99442756
69	0x3f823cfa	1.0174859
70	0x3f6685a7	0.9004769
71	0x3f60416e	0.8759984
72	0x3f70f417	0.9412245
73	0x3f909c7b	1.1297754

2.bias f4 [74]
0	0x3c4d5c28	0.012534179
1	0xbd787952	-0.060662575
2	0x3e029bf1	0.127548
3	0x3da386ba	0.079846814
4	0xbd9badfa	-0.07601543
5	0x3d77fdcf	0.060544785
6	0x3d878d3d	0.06618736
7	0xbddc1a38	-0.10747188
8	0xbb9e6163	-0.0048333867
9	0x3e20b31b	0.15693323
10	0x3d3d37fd	0.046195973
11	0xbd138ff6	-0.036025964
12	0x3dcf1bde	0.10112737
13	0x3e1b59c3	0.1517096
14	0x3ca26c55	0.019827047
15	0xbded0196	-0.11572568
16	0xbd92a038	-0.071594656
17	0x3debf05c	0.11520454
18	0x3e1e3bba	0.15452471
19	0x3db4de06	0.0883141
20	0xbd39b6ac	-0.045340225
21	0x3e108bf4	0.14115888
22	0x3dc2dc58	0.095146835
23	0x3d8eecd7	0.06978767
24	0x3e5e164c	0.21688193
25	0x3e0fa834	0.14029008
26	0x3d4e182a	0.050316013
27	0x3e34759f	0.17622994
28	0x3d954364	0.07288244
29	0x3d919ff3	0.07110586
30	0x3dd881a8	0.10571605
31	0xbd664331	-0.056216422
32	0xbd973ce8	-0.07384664
33	0x3df7a150	0.12091315
34	0xbd939f72	-0.07208146
35	0x3e058849	0.1304027
36	0x3ca7c835	0.020481208
37	0x3de67f0a	0.112546995
38	0x3dc5feb3	0.09667721
39	0xbd7cb081	-0.061691765
40	0x3e457a2c	0.19284886
41	0x3deca2e8	0.115545094
42	0x3d08f3fd	0.03343581
43	0xbd16287f	-0.036659714
44	0x3e205839	0.15658654
45	0xbcb370b6	-0.02190433
46	0xbce74a46	-0.028233659
47	0x3dea4b47	0.11440139
48	0x3e1ac932	0.15115812
49	0x3e358bd0	0.17729115
50	0x3d21f885	0.039543647
51	0x3cfd0d7e	0.030890223
52	0x3d4203e6	0.047367
53	0x3ca1cc76	0.019750815
54	0x3e3d55d7	0.18489777
55	0x3e0a69d5	0.13516934
56	0xbdcc4ad0	-0.09975207
57	0x3de37ac2	0.111073986
58	0x3e556838	0.20840538
59	0x3d91df0f	0.07122623
60	0x3e33f9a8	0.17575705
61	0x3e5a3f01	0.21313097
62	0x3e225736	0.15853581
63	0xbc7466f9	-0.014917129
64	0x3e1aa956	0.15103659
65	0x3d659d70	0.056058347
66	0xbdf22656	-0.11823718
67	0x3d955152	0.07290901
68	0x3dcc87f1	0.09986866
69	0x3e29f66a	0.16597906
70	0x3c84fb17	0.01623301
71	0x3d813756	0.063093826
72	0x3e31260d	0.17299671
73	0x3cafea8b	0.021474143

2.running_mean f4 [74]
0	0x3cd71ef4	0.026259877
1	0x3eb3c88e	0.3511395
2	0x3e60bd15	0.21947129
3	0x3ed4ca36	0.41560525
4	0x3e479b6f	0.19492887
5	0x3eacd421	0.33755592
6	0x3ebc6baf	0.36800906
7	0x3ed1d895	0.4098555
8	0x3cbea474	0.023271777
9	0x3e869022	0.2628184
10	0x3cc7ead2	0.024403963
11	0x3f737f5b	0.95116204
12	0x3d5bbcc4	0.053646818
13	0x3ea311fe	0.31849664
14	0x3f430e98	0.76194143
15	0x3e1ea11c	0.15491146
16	0x3da2823c	0.079349965
17	0x3e5a8e25	0.21343286
18	0x3e63e79b	0.22256319
19	0x3c8a4046	0.016876351
20	0x3ed5a8bc	0.41730297
21	0x3d19ee12	0.037580557
22	0x3dba0015	0.09082047
23	0x3ee7f108	0.4530108
24	0x3ea10421	0.31448463
25	0x3e09575d	0.13412233
26	0x3f156875	0.58362514
27	0x3de9b61c	0.11411688
28	0x3d9b7fcb	0.07592734
29	0x3f3acf8d	0.7297295
30	0x3e91ef03	0.28502664
31	0x3cc749e0	0.024327219
32	0x3e6168ee	0.22012684
33	0x3bcbe3cf	0.0062222253
34	0x3ec9d77d	0.39422217
35	0x3d18ac95	0.037273962
36	0x3c5632f1	0.013073669
37	0x3d03f711	0.032218043
38	0x3eddeef2	0.43346363
39	0x3dcf1323	0.10111072
40	0x3e9ccc4b	0.30624613
41	0x3e21e0fb	0.1580848
42	0x3eeace90	0.4586072
43	0x3e1735e0	0.14766645
44	0x3d8873b3	0.06662693
45	0x3dd48768	0.10377389
46	0x3e46b692	0.19405583
47	0x3ec2c168	0.38038182
48	0x3e1777ee	0.14791843
49	0x3e08589e	0.13315055
50	0x3db7dd08	0.08977705
51	0x3dfeeb45	0.12447218
52	0x3bea39e8	0.0071480162
53	0x3eb9a7cd	0.36260834
54	0x3d9055eb	0.070476376
55	0x3ec01940	0.37519264
56	0x3dca0f91	0.0986625
57	0x3e0f9e47	0.14025222
58	0x3e269863	0.16269068
59	0x3d872d8f	0.066004865
60	0x3ebb9023	0.36633405
61	0x3d0947e0	0.03351581
62	0x3d814c0f	0.06313335
63	0x3d637fa7	0.05554166
64	0x3e45ee43	0.19329171
65	0x3f07de5e	0.5307368
66	0x3e3c531f	0.18391083
67	0x3e060731	0.13088681
68	0x3dc1d402	0.094642654
69	0x3d076e10	0.03306395
70	0x3e920fe1	0.2852774
71	0x3e829bc4	0.25509465
72	0x3da40d2a	0.08010323
73	0x3ee5d29e	0.4488725

2.running_var f4 [74]
0	0x3cc88763	0.02447862
1	0x3e379e3c	0.17931455
2	0x3dadb953	0.084826134
3	0x3ce2d863	0.027691072
4	0x3ee79f03	0.45238504
5	0x3d5fe933	0.054665755
6	0x3e083b67	0.1330391
7	0x3d8c6438	0.06855053
8	0x3c69eb99	0.014277362
9	0x3ef9845e	0.487338
10	0x3c2b28d5	0.010446747
11	0x3bb9005f	0.005645796
12	0x3cb00a64	0.02148933
13	0x3f3c2e26	0.73507917
14	0x3bb34026	0.0054702936
15	0x3e643065	0.22284086
16	0x3d5e1bfa	0.0542259
17	0x3e8f2de8	0.2796471
18	0x3eaeb4a4	0.34122193
19	0x3bf76cbc	0.007550804
20	0x3e83e1fe	0.25758356
21	0x3c1d1224	0.009586845
22	0x3d3a72e8	0.04551974
23	0x3d00264e	0.03128653
24	0x3e53642b	0.2064368
25	0x3d949cac	0.07256445
26	0x3a43e932	0.00074734085
27	0x3da5751a	0.08078976
28	0x3d49b667	0.049246218
29	0x3bc22559	0.0059248623
30	0x3d2bf085	0.041977424
31	0x3c815ff7	0.01579283
32	0x3eadf49d	0.33975688
33	0x3b067a6d	0.0020519749
34	0x3ec8a06a	0.39184886
35	0x3c2f480d	0.010698331
36	0x3bdfc56e	0.0068289554
37	0x3be19fb1	0.006885492
38	0x3c2526e2	0.010080071
39	0x3b7ddee3	0.0038737587
40	0x3e577e1f	0.21044205
41	0x3e2ef9d2	0.17087486
42	0x3f808626	1.0040939
43	0x3e0b9b84	0.13633543
44	0x3d03f866	0.032219313
45	0x3de4eaf3	0.111776255
46	0x3ec24959	0.37946585
47	0x3f61a3cf	0.8814058
48	0x3e11aa3b	0.14225094
49	0x3df74f12	0.12075628
50	0x3d5435be	0.051809065
51	0x3c973fff	0.018463133
52	0x3b4e7a40	0.0031505972
53	0x3e05c1e2	0.13062242
54	0x3d12061b	0.035650354
55	0x3d5585bb	0.05212949
56	0x3ddcc2aa	0.10779317
57	0x3e0c28ae	0.13687393
58	0x3d0bafcf	0.03410321
59	0x3d0f3512	0.03496272
60	0x3e6f2ba2	0.23356488
61	0x3c9e69f7	0.019337637
62	0x3d57c9f2	0.052682824
63	0x3d2486d5	0.04016765
64	0x3c1416fd	0.009038684
65	0x3cb790d4	0.022407927
66	0x3ea9b74b	0.33147654
67	0x3dfa0452	0.12207855
68	0x3d890e12	0.06692137
69	0x3c0dfe0a	0.008666525
70	0x3d148497	0.03625926
71	0x3f10db4f	0.5658464
72	0x3d410b57	0.047129955
73	0x3cc6cfb2	0.024268959

3.weight f4 [74, 74, 2, 2]
0	0x3cbb0d18	0.022833392
1	0x3d86e760	0.065871
2	0xbbed514d	-0.007242358
3	0x3c44f6fa	0.012021774
4	0xbd3b7397	-0.045764532
5	0xbca0a8a3	-0.019611662
6	0x3c33f6c3	0.010984126
7	0x3d0e6cb4	0.034771636
8	0xbc0319ac	-0.008001726
9	0x3d53bc29	0.051693115
10	0x3cea2913	0.028584039
11	0x3cd8627a	0.026414145
12	0x3da9b1d9	0.08285875
13	0xba4786f0	-0.0007611355
14	0x3da82a65	0.08211211
15	0xbd0969ab	-0.03354804
16	0xbd370d54	-0.044690445
17	0xbbc5ecd5	-0.0060401955
18	0x3b0f71c9	0.002188789
19	0x3d2bf716	0.041983686
20	0xbc44053f	-0.011964141
21	0xbce23a62	-0.02761573
22	0x3d47ef69	0.048812304
23	0x3bc3f54e	0.0059801703
24	0x3ca0f49b	0.019647887
25	0xbcba6d05	-0.022757063
26	0xbb912e7a	-0.0044305893
27	0x3d8617fe	0.06547545
28	0x3ce7ed53	0.028311407
29	0xbd43fa24	-0.047845975
30	0x3d41ab52	0.047282524
31	0xbd1ab0cb	-0.03776626
32	0xbbcb1235	-0.006197239
33	0x3adb332c	0.0016723624
34	0xbccd1a90	-0.02503708
35	0x3cb74cec	0.022375546
36	0xbd3da450	-0.04629928
37	0x3c230f52	0.009952383
38	0xbcf769a2	-0.030201737
39	0x3b6763a0	0.0035307184
40	0xbc05789b	-0.00814643
41	0x3d42249b	0.04739819
42	0x3d420f65	0.047377963
43	0x3d826159	0.06366224
44	0x3d45fb52	0.04833538
45	0xbd79d211	-0.06099135
46	0xbc6fe3f7	-0.014641753
47	0xbd98c9c4	-0.07460359
48	0x3da685ff	0.081310265
49	0xbcaa3d9d	-0.020781333
50	0x3cc2a1f8	0.023758873
51	0xbcd0fc6e	-0.025510993
52	0x3ce3dc5a	0.027815033
53	0x3d5bcdd8	0.053663105
54	0x3d0b7d4d	0.034055043
55	0xbd0f3242	-0.03496004
56	0x3c1a0a1d	0.009401825
57	0xbddae92b	-0.106890045
58	0xbb5b232b	-0.003343771
59	0x3d90391e	0.07042144
60	0x3c968a47	0.018376483
61	0xbd5252da	-0.051348545
62	0x3cbc51af	0.022988169
63	0xbc834436	-0.016023736
64	0xbc132702	-0.008981468
65	0x3d7f46db	0.062323432
66	0xbc85b607	-0.016322149
67	0xbd069595	-0.032857496
68	0xbd0c87b1	-0.034309093
69	0x3ca4e1e1	0.020127239
70	0xba083442	-0.00051957753
71	0xbd02a39b	-0.031894308
72	0x3cfa0a88	0.0305226
73	0xbd28d1f5	-0.041215856
74	0xbce682b0	-0.028138489
75	0xbc11d09d	-0.008899835
76	0xb9aaba11	-0.00032563557
77	0x3bad92bc	0.005297033
78	0x3cdaf75a	0.026729275
79	0x3cf7d8d0	0.030254751
80	0x3d00710a	0.031357802
81	0xbcda8831	-0.02667627
82	0xbc0d6f6b	-0.008632521
83	0xbc06964e	-0.008214546
84	0x3ca39e63	0.019972986
85	0xbd049a1d	-0.032373536
86	0x3d863d86	0.065547034
87	0x3d5b52ac	0.05354564
88	0xbbf57970	-0.007491283
89	0x3d11ddd0	0.035611928
90	0xbcd11e45	-0.025527129
91	0x3c9a878e	0.018863466
92	0xbd8a6648	-0.0675779
93	0xbd380729	-0.044928703
94	0x3d5768f8	0.05259034
95	0x3d77ad7e	0.06046819
96	0xbd3fe613	-0.046850275
97	0x3d51e937	0.0512478
98	0x3cf18313	0.029481446
99	0xbc90f3dd	-0.017694408
100	0xbccb57dc	-0.024822168
101	0x3d50dc35	0.050991256
102	0xbd2d8e58	-0.042372078
103	0xbced3088	-0.028953806
104	0x3cb891ab	0.022530397
105	0xbd89439b	-0.06702348
106	0x3df2ba37	0.11851924
107	0xbdd493d5	-0.10379759
108	0x3d05c411	0.032657687
109	0xbd181745	-0.037131567
110	0x3d69587c	0.05696915
111	0xbcb1d0bb	-0.021705976
112	0x3b00c54a	0.0019648843
113	0xbd9d1907	-0.07670789
114	0xbd8ed59d	-0.06974337
115	0x3caec666	0.021334838
116	0x3d3e3364	0.04643573
117	0xbc2a160f	-0.010381236
118	0x3ca10433	0.019655323
119	0xbd961b4b	-0.073294245
120	0xbcce8423	-0.025209492
121	0xbd3bf740	-0.045890093
122	0x3bcc12b0	0.0062278137
123	0x3da9074a	0.082533434
124	0xbd2ec886	-0.042671703
125	0x3cae1d47	0.021254195
126	0x3cbf8b74	0.023381926
127	0x3cc72750	0.024310738
128	0xbd455f0b	-0.048186343
129	0xbcef6fc7	-0.029228104
130	0xbce95f69	-0.028487878
131	0xbcd4d610	-0.02598098
132	0xbd2b2cc3	-0.041790735
133	0xbc99cf57	-0.018775625
134	0xbcba2098	-0.02272062
135	0x3d39e5e3	0.045385253
136	0x3d3ac96e	0.045602255
137	0xbd1f0df4	-0.038831666
138	0xbbc43e85	-0.005988898
139	0x3d5326ef	0.0515508
140	0x3ca72624	0.020403929
141	0xbcc07b2c	-0.023496233
142	0x3d7a8a64	0.061167136
143	0x3ce2e6ce	0.027697947
144	0xbd47c61d	-0.04877292
145	0xbc7e814b	-0.0155337555
146	0xbc36736f	-0.01113592
147	0xbbc03adf	-0.005866393
148	0xbcba1728	-0.02271612
149	0x3c452fe6	0.012035346
150	0xb9d84721	-0.00041251726
151	0x3c2bb716	0.010480663
152	0x3d41d55a	0.04732261
153	0x3d6421a4	0.055696145
154	0x3dac9509	0.08426864
155	0xbd8f36f8	-0.06992906
156	0x3cb45697	0.022013946
157	0x3d0e9f86	0.034820102
158	0xbce7b076	-0.028282385
159	0xbd2a40ce	-0.04156571
160	0xbd1917b5	-0.037376124
161	0xbd02a3d9	-0.03189454
162	0x3ca41acc	0.020032309
163	0x3d43deee	0.047820024
164	0x3d4b6d80	0.049664974
165	0x3a86dcfd	0.0010289248
166	0x3c93fb41	0.018064143
167	0xbcaf1e68	-0.021376804
168	0xbd915f04	-0.07098201
169	0x3c60fce9	0.0137321735
170	0x39bed24d	0.0003639631
171	0xbd0f19a6	-0.03493657
172	0xbc164603	-0.0091719655
173	0x3d2dcc03	0.04243089
174	0x3c03b994	0.008039851
175	0x3c7ce6e6	0.01543591
176	0x3cc6555d	0.024210626
177	0x3d187b23	0.037226807
178	0x3d85a879	0.06526274
179	0xbd12a6d3	-0.035803627
180	0xbc03b8f9	-0.008039706
181	0x3ad34dd3	0.0016121216
182	0xbcfec7d6	-0.031101149
183	0x3cc44f2a	0.02396353
184	0xbc803b5b	-0.015653303
185	0x3cd39e2d	0.02583226
186	0xbcc86917	-0.024464173
187	0xbc460ba4	-0.012087736
188	0x3ca2b695	0.019862453
189	0xbda38d97	-0.079859905
190	0x3c3cbbf2	0.011519419
191	0xbd32467b	-0.043524247
192	0x3d033e81	0.03204203
193	0xbd816ec0	-0.06319952
194	0x3ce15395	0.027505675
195	0x3d126cbe	0.035748236
196	0x3cc46cab	0.023977598
197	0xbbfd3381	-0.007727087
198	0x3d4b9b62	0.04970873
199	0xbd115086	-0.035477184
200	0xb8b9ca40	-8.8591594e-05
201	0xbc5ec5c3	-0.013596955
202	0x3c2ac406	0.010422712
203	0x3b99e054	0.0046959314
204	0x3d60776b	0.054801386
205	0x3c1d5e25	0.009604965
206	0xbb838e58	-0.0040147714
207	0x3bee0973	0.00726431
208	0x3d042996	0.032266222
209	0xbbaba494	-0.005238125
210	0x3ce53684	0.027980097
211	0x3c9222ad	0.0178388
212	0xbbc0f207	-0.005888227
213	0x3ce72c39	0.02821933
214	0xbc3ed6d7	-0.0116479015
215	0xbd232275	-0.039827783
216	0xbd85c7a0	-0.06532216
217	0x3bccad33	0.006246233
218	0x3d1be1f8	0.038057297
219	0x3c8f0c33	0.017461872
220	0x3d0a05a2	0.033696778
221	0xbd2826f3	-0.04105277
222	0xbce94c6b	-0.028478822
223	0x3c0dba1d	0.00865033
224	0x3c11e335	0.008904268
225	0x3cdae488	0.0267203
226	0x3ca41960	0.020031631
227	0x3c536cc7	0.0129043525
228	0xbc326ea0	-0.010890633
229	0xbb601a38	-0.0034195315
230	0xbc87ae5c	-0.016562633
231	0xbb04857c	-0.0020221164
232	0xbc685c89	-0.014182218
233	0xbca8ca54	-0.02060429
234	0x3dc301a7	0.095217995
235	0x3d40b24d	0.04704504
236	0x3d18c31e	0.037295453
237	0xbc478366	-0.012177324
238	0x3d8590cf	0.06521761
239	0xbca944ad	-0.02066263
240	0xbd60ae58	-0.054853767
241	0xbc2643f4	-0.010148037
242	0x3b814821	0.003945366
243	0x3c36a22a	0.011147061
244	0x3b9fe218	0.0048792474
245	0x3d2f1641	0.042745832
246	0x3cb80415	0.022462884
247	0x3cf36b74	0.029714324
248	0x3db6d895	0.089280285
249	0x3c6d30da	0.014476979
250	0xbd373a38	-0.044733256
251	0xbd5599b1	-0.052148525
252	0xbb85e03b	-0.0040855682
253	0x3c8ab0ea	0.016930062
254	0x3d90606a	0.070496395
255	0xbd84cb94	-0.06484142

3.bias f4 [74]
0	0x3df015ca	0.11722906
1	0xbdbf3f38	-0.0933823
2	0xbd1afaf2	-0.037836976
3	0x3d514388	0.051089793
4	0x3e05871d	0.13039823
5	0xbb8a4ba2	-0.004220442
6	0x3d48e85d	0.049049724
7	0xbcf07a61	-0.02935523
8	0x3d38cc6f	0.045116838
9	0x3e22032a	0.1582152
10	0x3e2587ce	0.16165087
11	0x3dc66bab	0.09688505
12	0x3e03daf5	0.12876494
13	0x3d802c1b	0.062584125
14	0x3e3739a3	0.1789308
15	0x3dd59f25	0.10430745
16	0x3e4ee9ab	0.20206325
17	0x3e0d79e1	0.13816024
18	0xbce6d7f6	-0.02817915
19	0xbd3b6ae8	-0.04575625
20	0x3e7071a1	0.23480846
21	0x3e4a3e90	0.19750428
22	0x3db432e1	0.08798767
23	0x3cf4ad6b	0.029867848
24	0xbe2b3bfc	-0.16722101
25	0xbace860e	-0.0015756504
26	0x3dc89c19	0.09795398
27	0x3d9d9879	0.076950975
28	0x3d3bf09f	0.04588377
29	0xbc45faa8	-0.012083687
30	0x3e4fc597	0.20290218
31	0xbe182fc9	-0.14861979
32	0x3c4d05ae	0.012513561
33	0x3de6bec1	0.11266852
34	0x3e15eb5d	0.14640565
35	0xbc600ecc	-0.013675403
36	0x3e7e7ddd	0.248527
37	0xbd728900	-0.059212685
38	0xbd55b557	-0.052174892
39	0x3cf3862a	0.02972706
40	0x3e098f2f	0.13433526
41	0x3d98b164	0.074557096
42	0x3e1124b5	0.14174159
43	0x3e327062	0.17425683
44	0xbd8d8c44	-0.06911519
45	0x3d69c8c8	0.057076246
46	0x3db087ea	0.086196736
47	0x3df4d2b9	0.11954255
48	0x3e37c847	0.17947493
49	0xbb20cf38	-0.0024537574
50	0x3d269e1d	0.040678132
51	0x3dc57b11	0.09642614
52	0x3d8d11ac	0.06888136
53	0x3cc52976	0.024067622
54	0xbcd58492	-0.026064191
55	0x3deb8e7e	0.115017876
56	0xbc8f3745	-0.01748241
57	0x3d1d9f72	0.038482137
58	0x3c9f6aab	0.019460043
59	0x3d5da81c	0.0541154
60	0xbd66f02c	-0.05638139
61	0xbcd8af2e	-0.02645072
62	0xbdc8381d	-0.09776328
63	0x3e285faa	0.16442743
64	0x3e82cb28	0.2554562
65	0x3dadbf72	0.08483781
66	0x3d61abfe	0.055095665
67	0x3d68d4fd	0.056843746
68	0x3d4f4f50	0.050612748
69	0xbd2c44ae	-0.042057686
70	0xbdd3b634	-0.10337487
71	0x3aed561f	0.0018107331
72	0x3c918b06	0.017766487
73	0x3dae4c94	0.085107

5.weight f4 [74]
0	0x3f7daf64	0.9909575
1	0x3f703ca2	0.9384252
2	0x3f6e0d0c	0.9298866
3	0x3f7889a8	0.97085047
4	0x3f7d5855	0.9896291
5	0x3f712511	0.94197184
6	0x3f6f4289	0.934609
7	0x3f7af039	0.980228
8	0x3f833d9a	1.0253174
9	0x3f68874f	0.90831465
10	0x3f84e612	1.0382712
11	0x3f6c8154	0.9238484
12	0x3f873eb9	1.0566016
13	0x3f723334	0.9460938
14	0x3f85b4cf	1.0445803
15	0x3f7ab045	0.97925216
16	0x3f8021f4	1.0010362
17	0x3f98575c	1.190166
18	0x3f80526b	1.0025152
19	0x3f6cc695	0.9249051
20	0x3f8f2e70	1.1186047
21	0x3f70e986	0.9410633
22	0x3f80ea8d	1.0071579
23	0x3f6d9815	0.92810184
24	0x3f79ffd8	0.9765601
25	0x3f6c1f1d	0.92234975
26	0x3f87c930	1.0608273
27	0x3f759187	0.9592518
28	0x3f789b3a	0.97111857
29	0x3f81ca36	1.0139835
30	0x3f84e515	1.038241
31	0x3f8fc29b	1.1231264
32	0x3f6ed1b5	0.9328874
33	0x3f6f9ae7	0.9359574
34	0x3f760e78	0.9611583
35	0x3f83ce22	1.0297282
36	0x3f8a034f	1.078226
37	0x3f76ac74	0.9635689
38	0x3f708544	0.9395335
39	0x3f675a3f	0.9037208
40	0x3f7c9c2d	0.98675805
41	0x3f834964	1.0256772
42	0x3f8118e2	1.0085719
43	0x3f7c8768	0.98644114
44	0x3f6ddbce	0.9291352
45	0x3f77d7a7	0.96813434
46	0x3f6ce078	0.9253001
47	0x3f84653a	1.0343392
48	0x3f7d38df	0.98914903
49	0x3f7c20be	0.9848746
50	0x3f80499e	1.0022466
51	0x3f7bc996	0.9835447
52	0x3f7439a4	0.9540045
53	0x3f66535f	0.89970964
54	0x3f8178cc	1.0114989
55	0x3f6e1884	0.9300616
56	0x3f786810	0.97033787
57	0x3f76fad9	0.96476513
58	0x3f627741	0.8846322
59	0x3f81717b	1.0112756
60	0x3f728f5f	0.94750017
61	0x3f81c4a2	1.0138133
62	0x3f6488bb	0.89271134
63	0x3f6fe373	0.93706435
64	0x3f80a67b	1.0050806
65	0x3f7dd515	0.9915326
66	0x3f70250a	0.9380652
67	0x3f8a814f	1.0820712
68	0x3f777f56	0.96678674
69	0x3f7091a4	0.9397223
70	0x3f813b31	1.0096189
71	0x3f720606	0.9454044
72	0x3f7d7ad0	0.9901552
73	0x3f7a84bc	0.97858787

5.bias f4 [74]
0	0x3dbb486c	0.09144673
1	0xbe5047bb	-0.20339863
2	0x3d8f57a6	0.069991395
3	0x3e23fb54	0.16013843
4	0xbd6800ff	-0.056641575
5	0x3a327613	0.00068077556
6	0x3e07f854	0.13278323
7	0x3e08a906	0.13345727
8	0x3d525058	0.051346153
9	0xbdd4aee9	-0.10384924
10	0x3d15fbe0	0.03661716
11	0x3d765aa9	0.060145054
12	0xbd16357f	-0.03667211
13	0xbe39d949	-0.18149294
14	0xbe2d5f8c	-0.1693098
15	0x3ddb7ff2	0.10717763
16	0x3e082d4f	0.13298534
17	0xbd378600	-0.044805527
18	0x3ca2207f	0.019790886
19	0xbd62bc92	-0.055355616
20	0x3b082d52	0.0020778966
21	0x3cb7d25b	0.022439172
22	0x3d311952	0.043237038
23	0xbd9d2907	-0.07673841
24	0x3da942bb	0.08264681
25	0xbe0a2cfd	-0.13493724
26	0x3e4b3d06	0.19847497
27	0xbd329467	-0.04359856
28	0x3e40765a	0.18795148
29	0xbd8abc9e	-0.06774257
30	0xbe050dd6	-0.12993559
31	0xbe02f242	-0.12787727
32	0x3e1174cf	0.14204715
33	0x3e5af02b	0.2138068
34	0x3d74ddb4	0.059781745
35	0x3e045363	0.12922435
36	0xbe301a78	-0.17197597
37	0xbd37dd68	-0.044888884
38	0xbe1af3a2	-0.15132001
39	0x3dba9c5d	0.09111855
40	0xbc4bbb79	-0.012434834
41	0x3dbf9b28	0.093557656
42	0xbe11bfcb	-0.1423332
43	0x3dc95dcf	0.09832346
44	0x3db8af2b	0.09017786
45	0x3e2ceabf	0.16886424
46	0xbd4d489e	-0.05011808
47	0xbd25e697	-0.04050311
48	0xbd80f452	-0.062966004
49	0xbc34d480	-0.011036992
50	0x3dc02dcd	0.09383736
51	0xb97ca038	-0.00024092279
52	0x3e270f3a	0.16314402
53	0xbd8e6647	-0.069531016
54	0x3df339fb	0.11876293
55	0x3e29fd1e	0.16600463
56	0xbd64367e	-0.05571603
57	0x3d8fcf8c	0.07022008
58	0x3caf0767	0.021365834
59	0xbd9bed63	-0.07613637
60	0xbb765bee	-0.0037591415
61	0xbd487aed	-0.048945356
62	0xbdf0d625	-0.11759595
63	0x3d89053e	0.06690453
64	0xbb9a03bc	-0.004700152
65	0x3e55751e	0.20845458
66	0x3dc405d0	0.09571421
67	0xbc93b836	-0.018032175
68	0xbcf39c00	-0.029737473
69	0x3dacbe81	0.08434773
70	0xbe209d0c	-0.15684909
71	0x3dd639bf	0.10460233
72	0xbe2c6982	-0.16837123
73	0x3d8bd02d	0.06826816

5.running_mean f4 [74]
0	0x3eaef508	0.3417132
1	0x3e99373a	0.29924947
2	0x3e6189bb	0.22025196
3	0x3ea887c8	0.32916093
4	0x3ec029bf	0.3753185
5	0x3e59b998	0.21262205
6	0x3e324121	0.17407657
7	0x3e9d08eb	0.30670866
8	0x3e820e5a	0.25401574
9	0x3eaa6b5d	0.33285037
10	0x3e865e18	0.26243663
11	0x3eaa5706	0.3326952
12	0x3e9336e2	0.2875281
13	0x3e19de9c	0.15026325
14	0x3eb31f29	0.3498471
15	0x3ea4cb4f	0.32186362
16	0x3ef0a3e3	0.47000036
17	0x3ed762bf	0.42067525
18	0x3ea52c30	0.32260275
19	0x3e58f130	0.21185756
20	0x3ed772bc	0.42079723
21	0x3ec09b73	0.37618598
22	0x3ea573ea	0.32314998
23	0x3e2e6af9	0.17032994
24	0x3e5670e9	0.2094151
25	0x3e359e0e	0.17736074
26	0x3ea01659	0.3126705
27	0x3e77a606	0.24184427
28	0x3e770ad5	0.24125226
29	0x3e909406	0.28237933
30	0x3ecd55f5	0.40104643
31	0x3c86f9c0	0.016476512
32	0x3e6d0ad2	0.23148659
33	0x3ea3cd35	0.31992498
34	0x3e83df01	0.25756076
35	0x3e5eb198	0.21747434
36	0x3ec2f570	0.3807788
37	0x3e001f28	0.12511885
38	0x3e0643e9	0.13111843
39	0x3e3298b7	0.17441069
40	0x3e8a3ae6	0.2699806
41	0x3edd2fce	0.43200535
42	0x3ec4a3a0	0.38406086
43	0x3e9a08a9	0.30084732
44	0x3e39bad2	0.18137673
45	0x3eab957e	0.3351249
46	0x3e7b8446	0.24562177
47	0x3ec84b02	0.39119726
48	0x3eaa75d9	0.33293036
49	0x3e897f01	0.2685471
50	0x3e930ed0	0.2872224
51	0x3e9cf0bf	0.30652425
52	0x3ec12194	0.3772093
53	0x3e35ba6c	0.17746896
54	0x3e870798	0.2637298
55	0x3e9a1aaa	0.30098468
56	0x3e095111	0.1340983
57	0x3e7fa421	0.24964954
58	0x3e372b89	0.17887701
59	0x3e8b3a7e	0.27193063
60	0x3e30e113	0.17273359
61	0x3e88f002	0.2674561
62	0x3e0f9a74	0.14023763
63	0x3ed64dc7	0.41856214
64	0x3eb766ca	0.3582061
65	0x3ea52ea5	0.3226215
66	0x3e9f0890	0.3106122
67	0x3e978dca	0.29600364
68	0x3e964f3e	0.29357332
69	0x3e6ab8b8	0.22922027
70	0x3d5544f3	0.05206771
71	0x3e4562a3	0.19275908
72	0x3ec6b239	0.38807848
73	0x3e89e62d	0.26933423

5.running_var f4 [74]
0	0x3ef5174c	0.47869337
1	0x3fbc22c8	1.4698114
2	0x3edcc820	0.43121433
3	0x3eb0f167	0.34559175
4	0x3ea013c1	0.3126507
5	0x3e5f945c	0.21833938
6	0x3e007fd8	0.12548769
7	0x3f084f74	0.53246236
8	0x3ea17b65	0.31539455
9	0x3d6669f1	0.056253377
10	0x3e3e6038	0.18591392
11	0x3ea1e62f	0.3162093
12	0x3df3d536	0.11905901
13	0x3d5b8e4a	0.053602494
14	0x3ebea2e5	0.37233654
15	0x3ef045ab	0.46928152
16	0x3e866664	0.26249993
17	0x3ea8a614	0.32939208
18	0x3f1a68ad	0.6031597
19	0x3e3cd643	0.1844111
20	0x3d7d60b3	0.061859798
21	0x3df4b8fd	0.11949346
22	0x3f0a02de	0.53910625
23	0x3dd81a5b	0.10551902
24	0x3e964226	0.29347342
25	0x3e470b9c	0.19438022
26	0x3e68b122	0.22723821
27	0x3e9bff7f	0.30468366
28	0x3ec2fcae	0.38083404
29	0x3f0590c6	0.5217403
30	0x3e617450	0.22017026
31	0x3a05ef7f	0.0005109235
32	0x3e907d26	0.2822048
33	0x3e8aa191	0.2707639
34	0x3dee98e1	0.11650253
35	0x3e8ea017	0.27856514
36	0x3ea53a2d	0.32270947
37	0x3e309b77	0.17246805
38	0x3e729dfb	0.23693077
39	0x3df4052a	0.119150475
40	0x3e0d7667	0.13814698
41	0x3ecd8ae5	0.4014503
42	0x3eab40fa	0.3344801
43	0x3df1c9fd	0.11806104
44	0x3e4aaf57	0.1979345
45	0x3eb4b670	0.3529544
46	0x3def4920	0.11683869
47	0x3e684668	0.22683108
48	0x3e27b0a5	0.16375978
49	0x3ee76016	0.45190495
50	0x3f041896	0.51600015
51	0x3eadd1ff	0.33949277
52	0x3f17833c	0.5918462
53	0x3e34c4b6	0.17653164
54	0x3eb6e8fe	0.35724634
55	0x3e8695f1	0.2628627
56	0x3e18ad95	0.14909966
57	0x3e9c762b	0.30558905
58	0x3e639498	0.22224653
59	0x3e9fa805	0.31182876
60	0x3ddcc5ff	0.10779952
61	0x3ee9cc05	0.45663467
62	0x3e5a503a	0.21319667
63	0x3e472de8	0.19451106
64	0x3d683cba	0.05669854
65	0x3ef0d1b0	0.4703498
66	0x3eec8d83	0.46201715
67	0x3e93127b	0.28725037
68	0x3eed7078	0.4637487
69	0x3e631815	0.22177155
70	0x3b953775	0.00455373
71	0x3e89347b	0.26797852
72	0x3ebfcc73	0.3746067
73	0x3e56b8c4	0.2096892

6.weight f4 [74, 74, 2, 2]
0	0xbac48827	-0.001499419
1	0x3cbb71c4	0.022881396
2	0xbd258ebc	-0.040419325
3	0x3d8367cd	0.06416283
4	0x3cd02b6a	0.025411326
5	0x3d5d4b83	0.05402709
6	0xbd281ced	-0.04104321
7	0x3ac7ee8b	0.0015253586
8	0xbd0cbcc2	-0.0343597
9	0xbacccea3	-0.0015625547
10	0x3cfd16bb	0.030894628
11	0x3b852759	0.0040635285
12	0x3d06fdd8	0.032956928
13	0xbc5c1aaa	-0.013434092
14	0x39b32899	0.00034171788
15	0xbbbc7929	-0.005751748
16	0x3cbee973	0.023304677
17	0xbbbf8588	-0.0058447756
18	0x3ac5dc14	0.0015095496
19	0x3c956004	0.01823426
20	0x3c54eb1b	0.012995507
21	0x3d20a8fb	0.039223652
22	0x3cc03707	0.02346374
23	0xbc32d350	-0.010914639
24	0x3b059f87	0.0020389275
25	0xbcc5c440	-0.02414143
26	0x3b86e7f7	0.004117008
27	0x3d38e689	0.04514173
28	0x3bee2a1d	0.007268204
29	0xbd1744ff	-0.036931034
30	0x3dabfab7	0.083974294
31	0xbc8aaade	-0.016927179
32	0x3c8d21e2	0.01722807
33	0xbdb0d9e1	-0.08635307
34	0xbac688cf	-0.0015146973
35	0xbc723390	-0.014782801
36	0xbd8dbbc9	-0.06920583
37	0x3da92d6a	0.08260615
38	0x3d12a4ad	0.03580158
39	0xbcc0fbba	-0.023557533
40	0x3cbef2fc	0.023309223
41	0x3d8c5ef0	0.068540454
42	0xbce40788	-0.027835622
43	0x3a8c3d5a	0.0010699437
44	0xbba9c25d	-0.0051806406
45	0x3bf43c09	0.007453446
46	0x3d470f48	0.048598558
47	0x3c15d69d	0.009145406
48	0x3c6253fa	0.013813967
49	0xbd345572	-0.0440268
50	0x3ca0c10c	0.019623302
51	0xbbd6ecff	-0.006559014
52	0xbc7d2818	-0.015451454
53	0x3c434fe7	0.011920906
54	0xbd9ebbdd	-0.07750676
55	0x3bbe1f74	0.0058020893
56	0x3cd9f4e3	0.026606029
57	0xbdf01780	-0.11723232
58	0xbc9e7cb9	-0.019346582
59	0x3cb49769	0.022044854
60	0xbbc1f302	-0.0059188614
61	0x3d9ae67e	0.07563494
62	0x3d7fa986	0.06241753
63	0xbce3cb55	-0.027806917
64	0xbc133fd6	-0.008987388
65	0xbd3bc9ff	-0.045846935
66	0x3caae169	0.020859437
67	0x3c36dffd	0.011161801
68	0x3d0ca457	0.034336414
69	0x3c98788e	0.018612172
70	0x3ba5d055	0.0050602355
71	0x3c9330cc	0.017967604
72	0xbd122118	-0.035676092
73	0x3db0cf96	0.08633344
74	0x3c397430	0.011319205
75	0xbd5dd43a	-0.054157473
76	0xbb748a8c	-0.0037314026
77	0xbd66827e	-0.05627679
78	0x3cf71bd3	0.030164635
79	0x3d069789	0.03285936
80	0x3c4ddb87	0.012564546
81	0xbe0128fa	-0.12613288
82	0xbd0bcb58	-0.03412947
83	0x3d8052e2	0.06265809
84	0xbd2899c8	-0.041162282
85	0x3ca21116	0.019783538
86	0x3d86146b	0.06546863
87	0xbca8d81e	-0.020610865
88	0x3bafd330	0.0053657517
89	0x3cdf0a2e	0.027226534
90	0xbc73d162	-0.014881464
91	0xbc7f45b2	-0.0155805815
92	0x3d2b9d5e	0.041898124
93	0xbda53f5a	-0.08068724
94	0x3c9cf8dc	0.019161634
95	0xbd04d7c7	-0.032432344
96	0xbc787f59	-0.015167081
97	0xbcbfb9cc	-0.023404025
98	0xbbb0909d	-0.005388333
99	0x3d9970ab	0.07492193
100	0x3c1f8c1b	0.009737994
101	0x3c73c0ec	0.014877539
102	0x3c049677	0.008092514
103	0xbd0bb4ec	-0.034108087
104	0x3ce5d3be	0.028055068
105	0xbd8c2782	-0.06843473
106	0x3cb81835	0.02247248
107	0x3cbd0684	0.023074396
108	0x3b3ec2a6	0.0029107719
109	0xbd8656ac	-0.065595
110	0x3d49d764	0.049277678
111	0x3d075518	0.033040136
112	0x3b854f48	0.004068289
113	0xbc637aa9	-0.013884225
114	0xbd496225	-0.049165864
115	0xbcbaf054	-0.022819676
116	0x3cc1600c	0.023605369
117	0xbc8fc834	-0.017551519
118	0x3c987525	0.018610546
119	0x3daf57db	0.08561679
120	0xbd408440	-0.047001123
121	0x3c647bf9	0.013945573
122	0x3cf8da91	0.030377658
123	0xbc9656d1	-0.018351944
124	0x3c046879	0.008081549
125	0xbc776ad5	-0.015101154
126	0xbc261d04	-0.010138754
127	0xbd5b082a	-0.053474583
128	0x3d205132	0.039139934
129	0x3bc4ded8	0.0060080104
130	0xbc29f66d	-0.010373694
131	0x3cb823f0	0.022478074
132	0xbd1bb896	-0.03801783
133	0xbd6526c1	-0.05594516
134	0x3c054d58	0.008136116
135	0x3d2a56a5	0.041586537
136	0xbc5dab45	-0.013529603
137	0xbc0897bc	-0.008336958
138	0xbd71259b	-0.058873754
139	0xbca5a6fa	-0.020221222
140	0x3d308d10	0.043103278
141	0x3c995f9e	0.018722352
142	0x3c0bf9c5	0.008543436
143	0xbcf54b7c	-0.02994322
144	0xbcdb4450	-0.026765972
145	0x3d0ba8ec	0.034096643
146	0x3c467248	0.012112208
147	0x3d312b63	0.043254267
148	0x3ca747b6	0.020419937
149	0xbd44c6d2	-0.048041172
150	0xba1cb88e	-0.00059784285
151	0xb9b7ee26	-0.00035081914
152	0x3c78f25e	0.015194504
153	0x3ce4a5f6	0.027911168
154	0xbafe0f1b	-0.0019383164
155	0x3d1529ec	0.036416933
156	0x3da524b9	0.08063645
157	0x3b4d2cce	0.0031307223
158	0x3cc6f4f3	0.024286723
159	0x3d0e8407	0.03479388
160	0x3d9de819	0.07710285
161	0xbd730f6d	-0.059340883
162	0xbd187984	-0.03722526
163	0x3da59bdd	0.08086369
164	0x3cced966	0.025250148
165	0x3b35d5bf	0.002774581
166	0x3d465147	0.048417356
167	0xbd93d7dc	-0.07218906
168	0x3c385774	0.011251319
169	0x3d66aebd	0.056318987
170	0xbd3185a1	-0.04334033
171	0xbd21e517	-0.039525118
172	0x3d54f775	0.051993806
173	0xbd835a39	-0.06413693
174	0xbce1bad4	-0.027554907
175	0x3cfd9df3	0.030959105
176	0x3cb76bdd	0.0223903
177	0x3c0a338b	0.00843514
178	0x3c8203d7	0.015870972
179	0xbd27ce74	-0.040968373
180	0x3cb73441	0.022363784
181	0x3bcbef19	0.006223571
182	0x3d167df5	0.036741216
183	0xbd11f982	-0.03563834
184	0x3c6614bd	0.01404303
185	0xbbf44838	-0.007454898
186	0x3d4a1aa9	0.04934183
187	0xbd83cdbf	-0.06435727
188	0x3d717f1b	0.058959108
189	0xbd7b57a4	-0.061362877
190	0xbd8b299f	-0.06795048
191	0x3da7c841	0.08192492
192	0x3dbe3bce	0.092887506
193	0xbd87017d	-0.06592081
194	0x3d914438	0.0709309
195	0xbcd7d3e7	-0.02634616
196	0xbd8e784a	-0.06956537
197	0x3b6f1019	0.00364781
198	0xbd87651d	-0.06611083
199	0xbd823298	-0.06357306
200	0xbcfa2e33	-0.030539608
201	0x3cea4ba0	0.028600514
202	0xbcfc6176	-0.030808192
203	0xbcf9e00e	-0.030502345
204	0xbd33d707	-0.043906238
205	0xbb36096c	-0.0027776612
206	0x3ce4d308	0.027932659
207	0xbd8b970d	-0.0681592
208	0x3d9c0125	0.07617406
209	0xb9ba4ebf	-0.00035535355
210	0x3d31e38f	0.043429907
211	0xbdb86c8c	-0.09005079
212	0xbabf1fb6	-0.0014581594
213	0xbd13b064	-0.03605689
214	0x3971581b	0.00023016373
215	0xbc0ba02f	-0.008522077
216	0xbcfa4c1c	-0.03055387
217	0xbd49a0d0	-0.04922563
218	0xbd20db62	-0.03927172
219	0x3dc1fc97	0.09472006
220	0xbd6dfc32	-0.05810184
221	0x3dbae531	0.09125746
222	0xbb7c277c	-0.0038475683
223	0xbc845fed	-0.016159022
224	0x3cb65481	0.022257091
225	0xbc3a8472	-0.0113841165
226	0xbc01cfdb	-0.007923092
227	0x3ac05db9	0.0014676369
228	0xbcea4edc	-0.028602056
229	0xbd6227db	-0.05521379
230	0xbcb05b17	-0.02152781
231	0x3d3c5f1c	0.04598914
232	0x3cbe3549	0.023218768
233	0x3ce42849	0.02785124
234	0x3c7489fa	0.014925474
235	0xb803983a	-3.1374606e-05
236	0xbcd9bbde	-0.02657884
237	0x3c7bb371	0.015362606
238	0xbd7c1657	-0.061544742
239	0x3d415781	0.04720259
240	0x3d57f7c5	0.052726526
241	0x3cbee428	0.023302153
242	0xbd068480	-0.032841206
243	0x3bc77770	0.006087236
244	0xbb3542b0	-0.0027658157
245	0x3bb790b7	0.005601968
246	0x3dc82394	0.09772411
247	0xbd900cfe	-0.07033728
248	0xbcc7470a	-0.024325866
249	0x3cbce6c7	0.023059262
250	0xbc035e10	-0.008018032
251	0xbd689002	-0.05677796
252	0x3cadffe6	0.021240186
253	0xbce85f40	-0.028365731
254	0xbce73fde	-0.028228696
255	0x3d200535	0.039067466

6.bias f4 [74]
0	0xbd3fb893	-0.046806883
1	0xbd0c9ffb	-0.034332257
2	0x3ca3e249	0.020005362
3	0x3cfc4aeb	0.030797442
4	0x3dafaf73	0.08578386
5	0xbdce8051	-0.10083068
6	0xbddbe1c3	-0.1073642
7	0xbcca0fff	-0.02466583
8	0xb95fc253	-0.00021339329
9	0x3db349fe	0.08754347
10	0xbc17c40e	-0.009263052
11	0x3cd55fc3	0.02604664
12	0x3de5b04b	0.11215266
13	0x3c654ab7	0.013994864
14	0xbdbcf480	-0.09226322
15	0xbdd36b45	-0.103231944
16	0xbc0b73d6	-0.008511504
17	0x3d417738	0.047232836
18	0xbc462296	-0.012093207
19	0xbc3b7390	-0.0114411265
20	0x3c07b759	0.00828346
21	0x3e376553	0.17909746
22	0x3cc494ab	0.023996672
23	0xbda24db5	-0.07924978
24	0xbd96ae6b	-0.07357486
25	0x3c00cf40	0.007861912
26	0x3cc336a5	0.023829767
27	0x3db0383c	0.08604476
28	0x3d17371c	0.03691779
29	0xbb258a78	-0.0025259536
30	0x3d88a11d	0.06671355
31	0x3db8e90e	0.09028827
32	0x3d246a70	0.04014057
33	0x3d783b34	0.060603335
34	0xbde5de72	-0.11224069
35	0x3cde9a2c	0.027173124
36	0xbe09f2ca	-0.13471523
37	0xbd9a9919	-0.07548732
38	0xbe069101	-0.13141252
39	0x3cab6e17	0.020926518
40	0x3e9eaa72	0.30989414
41	0x3dac215e	0.08404802
42	0xbd2bbaca	-0.041926183
43	0x3db4c343	0.08826306
44	0xbd893e42	-0.06701328
45	0x3e972f9d	0.29528514
46	0xbe0f2a66	-0.13981017
47	0xbea55dd5	-0.3229815
48	0xbcec0cb2	-0.028814647
49	0x3d4c68a7	0.04990449
50	0x3d201f1f	0.03909218
51	0xbdda3a32	-0.10655631
52	0xbe114460	-0.14186239
53	0x3cf7256b	0.03016921
54	0x3d0568e4	0.032570735
55	0xbd8d4c83	-0.06899359
56	0xbc717e9a	-0.014739657
57	0xbc633f7f	-0.013870119
58	0xbccfffe0	-0.025390565
59	0x3df405ee	0.119151935
60	0x3dd180aa	0.10229619
61	0xbc08d2a8	-0.008351006
62	0x3e8ae36e	0.2712664
63	0x3b0bb08b	0.0021314945
64	0x3d1d32cb	0.038378518
65	0x3d84ff79	0.0649404
66	0x3d609a59	0.054834697
67	0x3d99b767	0.07505684
68	0xbcfd31d3	-0.030907547
69	0x3d1ecd0a	0.03876976
70	0xbdbdb312	-0.092626706
71	0x3b9ed32b	0.0048469505
72	0xbd6ba5af	-0.057531055
73	0xbdc6d739	-0.09709019

8.weight f4 [74]
0	0x3f71f7d2	0.9451877
1	0x3f69f140	0.91383743
2	0x3f82bb8b	1.0213484
3	0x3f739fe1	0.9516583
4	0x3f811c9a	1.0086854
5	0x3f65c0a2	0.8974706
6	0x3f6c42e7	0.92289585
7	0x3f73cf01	0.9523774
8	0x3f736f0b	0.95091313
9	0x3f831201	1.0239869
10	0x3f705184	0.9387438
11	0x3f7d0c42	0.9884683
12	0x3f79597f	0.97402185
13	0x3f847375	1.0347735
14	0x3f78c8a0	0.9718113
15	0x3f6e85e2	0.9317304
16	0x3f825004	1.0180669
17	0x3f807a8a	1.0037396
18	0x3f85890c	1.0432448
19	0x3f829719	1.0202361
20	0x3f642256	0.8911489
21	0x3f7bae0b	0.98312443
22	0x3f789668	0.971045
23	0x3f729e36	0.9477266
24	0x3f85fe05	1.0468146
25	0x3f79996b	0.9749972
26	0x3f7172e3	0.9431593
27	0x3f72c015	0.94824344
28	0x3f748c34	0.95526433
29	0x3f7db773	0.99108046
30	0x3f78631f	0.97026247
31	0x3f71c224	0.9443686
32	0x3f6d0d75	0.9259866
33	0x3f79c707	0.97569317
34	0x3f6b34a8	0.9187722
35	0x3f819296	1.012286
36	0x3f69ad7e	0.91280353
37	0x3f7dd03b	0.9914586
38	0x3f72d965	0.9486297
39	0x3f742e3e	0.9538306
40	0x3f7a931d	0.9788073
41	0x3f6a4f10	0.9152689
42	0x3f5b3955	0.85634357
43	0x3f7a1020	0.97680855
44	0x3f77bdc1	0.96773916
45	0x3f8738f1	1.0564252
46	0x3f7d8dc8	0.99044466
47	0x3f937507	1.1520089
48	0x3f81b9de	1.0134847
49	0x3f7e3e24	0.9931357
50	0x3f86eb9a	1.054065
51	0x3f7d7618	0.9900832
52	0x3f86c9e1	1.0530359
53	0x3f83aed6	1.0287731
54	0x3f7e93fb	0.9944455
55	0x3f810eb7	1.0082616
56	0x3f74e8c0	0.9566765
57	0x3f7a2ab4	0.9772141
58	0x3f7b7cc1	0.98237234
59	0x3f7d3402	0.9890748
60	0x3f8389ba	1.0276406
61	0x3f834abc	1.0257182
62	0x3f7b2e35	0.9811738
63	0x3f818586	1.0118873
64	0x3f8001a9	1.0000507
65	0x3f74de5f	0.9565181
66	0x3f7941fe	0.9736632
67	0x3f85a697	1.0441464
68	0x3f825ed2	1.0185187
69	0x3f788aaa	0.97086585
70	0x3f7c2e39	0.9850803
71	0x3f787a9f	0.97062105
72	0x3f796bae	0.9742993
73	0x3f6526f1	0.89512545

8.bias f4 [74]
0	0xbe0ccf77	-0.13751017
1	0x3bb3adff	0.0054833884
2	0x3c506788	0.012719996
3	0x3e398a1b	0.1811909
4	0x3d9c7cba	0.07640977
5	0xbe36dc71	-0.17857529
6	0x3e00d14f	0.12579845
7	0xbd6150a5	-0.05500855
8	0xbdae50ea	-0.08511527
9	0x3d00a801	0.03141022
10	0xbdcac85a	-0.09901495
11	0xbce9d341	-0.028543117
12	0x3e03a6b6	0.12856564
13	0xbe2778b4	-0.16354638
14	0xbe3e35cc	-0.1857521
15	0xbe4b1da1	-0.19835521
16	0xbe311510	-0.17293191
17	0x3da0df0d	0.078550436
18	0xbe1f36ad	-0.15548201
19	0x3dbc7cd7	0.09203499
20	0xbe7f8828	-0.24954283
21	0x3e022d74	0.12712651
22	0x3e109634	0.14119798
23	0xbe74a2d3	-0.23890238
24	0x3cd5454c	0.02603402
25	0xbdd809ea	-0.10548766
26	0xbdd78f63	-0.10525396
27	0xbe75d426	-0.2400671
28	0x3e11ba4e	0.14231226
29	0xbe3bcbc3	-0.18339448
30	0x3da317b2	0.07963504
31	0x3e36a482	0.17836192
32	0xbdcc414e	-0.099733934
33	0xbc99145a	-0.018686462
34	0xbe1d0a3c	-0.15335935
35	0xbe0f73b7	-0.14008985
36	0xbdeebce6	-0.11657123
37	0xbe2a2bbd	-0.16618247
38	0xbe106693	-0.14101629
39	0xbdcfd1a5	-0.101474084
40	0xbe00e20b	-0.12586229
41	0xbe217f15	-0.15771134
42	0xbdb9d275	-0.090733446
43	0x3dd82e28	0.105556786
44	0xbdf7b3d8	-0.12094849
45	0x3cffd64b	0.031230113
46	0xbe343474	-0.17598134
47	0x3e159bd1	0.1461022
48	0xbe287508	-0.16450894
49	0x3d293d72	0.041318364
50	0x3dd0297a	0.10164161
51	0xbe3d1166	-0.18463668
52	0xbe5394af	-0.20662187
53	0xbe3eaee7	-0.18621407
54	0xbe3f3bcb	-0.18675153
55	0xbc9c21de	-0.019059118
56	0xbe0c127a	-0.13678923
57	0xbe33bfcb	-0.17553632
58	0xbca5f5c6	-0.020258795
59	0x3da5a9d7	0.08089035
60	0x3d36137f	0.044452187
61	0xbe33f3c6	-0.17573461
62	0xbc576bf0	-0.013148293
63	0xbd905c8d	-0.07048903
64	0xbdfd1345	-0.12357191
65	0xbe628191	-0.22119738
66	0xbe802ab1	-0.2503257
67	0xbdda9d96	-0.106745884
68	0xbbf74e03	-0.0075471415
69	0xbab4b798	-0.0013787625
70	0xbe4ec0b8	-0.20190704
71	0x3e49e334	0.19715577
72	0x3de01e72	0.10943307
73	0xbe6b6009	-0.22985853

8.running_mean f4 [74]
0	0x3e7506c7	0.23928367
1	0x3e26230a	0.16224304
2	0x3eb47cdf	0.3525152
3	0x3e0a1cd9	0.13487567
4	0x3ea89a4b	0.32930216
5	0x3d2dc06b	0.042419832
6	0x3d01ad49	0.0316594
7	0x3e6e1e33	0.23253708
8	0x3e5d05dd	0.21584268
9	0x3ea51000	0.3223877
10	0x3e3e6dd9	0.18596591
11	0x3e86c133	0.26319274
12	0x3e972a7f	0.2952461
13	0x3e5d7385	0.21626098
14	0x3e1e8dcb	0.15483777
15	0x3d9795d9	0.07401628
16	0x3edef215	0.4354407
17	0x3f119c94	0.56879544
18	0x3eb25d2f	0.34836718
19	0x3eaa31f1	0.33241227
20	0x3e8103dd	0.2519826
21	0x3ea89053	0.3292261
22	0x3e8f3fbc	0.27978313
23	0x3e1ed21e	0.15509841
24	0x3ec39da2	0.38206202
25	0x3e91c680	0.28471756
26	0x3e856c98	0.26059413
27	0x3e589a63	0.21152644
28	0x3e7f5f55	0.2493871
29	0x3e8539ce	0.26020664
30	0x3e971236	0.2950608
31	0x3e904064	0.28174126
32	0x3e97ce40	0.29649544
33	0x3e7c58a8	0.24643195
34	0x3d912fa1	0.070891626
35	0x3f28aa82	0.65885174
36	0x3dc5f656	0.096661255
37	0x3e642806	0.22280893
38	0x3e120ae4	0.14261967
39	0x3e117a5e	0.14206836
40	0x3f3df7ad	0.7420605
41	0x3e99d043	0.30041704
42	0x3e146f38	0.14495552
43	0x3e9d6f9a	0.30749208
44	0x3e827a87	0.25484106
45	0x3f4d8c60	0.8029232
46	0x3e2e9174	0.17047673
47	0x3d58bbbb	0.05291341
48	0x3ea88508	0.32913995
49	0x3ec66236	0.38746804
50	0x3e9e2d74	0.30894053
51	0x3e38aa9a	0.1803383
52	0x3eaca424	0.3371898
53	0x3ec77d39	0.38962725
54	0x3e73ebdc	0.23820442
55	0x3eaa7b0f	0.3329701
56	0x3eae537e	0.34048074
57	0x3e3e9f3f	0.18615435
58	0x3e9838ff	0.29730985
59	0x3eaa254e	0.33231586
60	0x3ed34b65	0.4126846
61	0x3e541f97	0.20715176
62	0x3f45212a	0.7700373
63	0x3eb437de	0.35198873
64	0x3ea0cec0	0.31407738
65	0x3e8a0edb	0.2696446
66	0x3e6beb26	0.23038921
67	0x3eda4e25	0.42637745
68	0x3ebe2d7d	0.3714408
69	0x3ec68e0e	0.38780254
70	0x3e80abd8	0.25131106
71	0x3e487bc0	0.19578457
72	0x3e4ab070	0.19793868
73	0x3e8544f4	0.2602917

8.running_var f4 [74]
0	0x3ebd390d	0.3695759
1	0x3e42237c	0.18958849
2	0x3f13b7cf	0.57702345
3	0x3e11b041	0.14227392
4	0x3eccc7b3	0.39996108
5	0x3d457b12	0.048213072
6	0x3c65284e	0.01398666
7	0x3dc66d58	0.096888244
8	0x3e3bd348	0.18342316
9	0x3f0fcac1	0.5616875
10	0x3e30d416	0.17268404
11	0x3ed4d2c7	0.4156706
12	0x3ecaa404	0.3957826
13	0x3d709a25	0.058740754
14	0x3e2e0c09	0.16996779
15	0x3e158ac9	0.14603724
16	0x3f44ff25	0.7695182
17	0x3f40fed3	0.7538883
18	0x3f1e4d36	0.61836565
19	0x3eddc339	0.43313006
20	0x3e1ce131	0.15320279
21	0x3e884b69	0.26620033
22	0x3ee4f03e	0.4471454
23	0x3e328ea7	0.1743723
24	0x3f6bf49d	0.92170125
25	0x3f0aa77a	0.541618
26	0x3eabd159	0.33558157
27	0x3e535210	0.20636773
28	0x3ebe22f1	0.37136033
29	0x3eee164f	0.46501395
30	0x3eef3ba7	0.467252
31	0x3eaf3394	0.34219038
32	0x3ea1c8b8	0.3159845
33	0x3e89dfa6	0.26928443
34	0x3df7f193	0.121066235
35	0x3e8cbd95	0.2748839
36	0x3da524ab	0.080636345
37	0x3ec6c432	0.3882156
38	0x3e04d9dd	0.12973733
39	0x3e13f7b9	0.14449967
40	0x3e349654	0.1763547
41	0x3df9c29e	0.121953234
42	0x3e36abbc	0.17838949
43	0x3f201bd5	0.6254247
44	0x3ec3d8f6	0.38251466
45	0x3ed7d189	0.4215205
46	0x3ed8c00c	0.4233402
47	0x3bdd3b90	0.006751485
48	0x3f08f32d	0.53496057
49	0x3ecef938	0.40424514
50	0x3ec4f741	0.3846989
51	0x3e4faf54	0.20281726
52	0x3f3ba7ac	0.7330272
53	0x3f61058b	0.8789908
54	0x3ea1c42e	0.31594986
55	0x3f04d8b3	0.51893157
56	0x3f3362fd	0.7007292
57	0x3e75a1c3	0.23987488
58	0x3ebd15eb	0.36930785
59	0x3f11e8c1	0.5699578
60	0x3f0bb1de	0.5456828
61	0x3d5f2381	0.05447722
62	0x3e5b04de	0.21388575
63	0x3f3bc406	0.73345983
64	0x3f172383	0.5903856
65	0x3eaa2d9f	0.3323793
66	0x3eb5fbf5	0.3554379
67	0x3f6c6b34	0.9235108
68	0x3f81aef9	1.0131522
69	0x3f46e12b	0.7768733
70	0x3ec70cae	0.3887686
71	0x3e5f0a57	0.21781288
72	0x3e937651	0.28801206
73	0x3e670ba4	0.22563034
