trained_model_cnn5x5_d1_landmask_none.pth (torch, 995150 bytes, 26 tensors)

0.weight f4 [296, 2, 2, 2]
0	0x3d5b92a4	0.053606644
1	0x3e7d1c9a	0.24717942
2	0xbe8340f2	-0.25635487
3	0xbe57f41f	-0.21089219
4	0xbe37a5f9	-0.17934407
5	0x3d6c6c73	0.057720613
6	0xbd380ab7	-0.044932093
7	0x3e868cac	0.262792
8	0xbd633436	-0.055469714
9	0x3d824e87	0.06362634
10	0xbd8c1d1c	-0.0684149
11	0x3bb49566	0.0055109737
12	0xbf194a0e	-0.59878623
13	0xbc77a6db	-0.015115465
14	0xbe19e8b0	-0.1503017
15	0x3d02d475	0.031940896
16	0x3e01c43b	0.12672512
17	0x3e428d2c	0.18999165
18	0xbe81a494	-0.25320876
19	0xbe02130f	-0.12702583
20	0x3dc251eb	0.09488281
21	0x3e517560	0.20454931
22	0xbe0c200f	-0.13684104
23	0x3e715f3e	0.23571488
24	0xbdb09457	-0.086220436
25	0x3d65ac7c	0.056072697
26	0x3eac166d	0.3361086
27	0xbe9c82ae	-0.3056845
28	0xbdd5339a	-0.10410233
29	0xbd9f0b35	-0.077658094
30	0xbe17f2a3	-0.14838652
31	0x3eaf3698	0.3422134
32	0xbe2f1e40	-0.17101383
33	0xbdecd790	-0.11564553
34	0xbe7109fd	-0.23538966
35	0xbea01764	-0.31267846
36	0xbe817d74	-0.25291026
37	0x3eacbece	0.33739322
38	0x3e2cfae0	0.16892576
39	0x3e842b47	0.25814268
40	0x3df13460	0.11777568
41	0xbd82fa58	-0.063954055
42	0x3d9862c5	0.07440714
43	0xbea2239d	-0.31667796
44	0xbe68558d	-0.22688885
45	0xbe703e21	-0.234612
46	0x3e611885	0.2198201
47	0x3e80a450	0.2512536
48	0xbe762d90	-0.24040818
49	0xbc8cfccc	-0.017210387
50	0x3e07a300	0.13245773
51	0x3e96ca5c	0.29451263
52	0x3df1bfcc	0.118041605
53	0x3db4c00a	0.08825691
54	0x3e4ed389	0.20197882
55	0xbe6bad2e	-0.23015282
56	0x3e114a05	0.14188392
57	0xbe881408	-0.26577783
58	0xbe43d7e8	-0.1912533
59	0xbe1f8b4d	-0.15580483
60	0x3e333d62	0.17503884
61	0x3e0c42eb	0.13697402
62	0xbe5e8754	-0.21731311
63	0x3dd0f5e9	0.10203154
64	0x3e3f0e29	0.18657745
65	0xbe34f5ad	-0.17671843
66	0x3d019371	0.03163475
67	0xbd2062e5	-0.039156813
68	0x3e812b05	0.25228134
69	0x3e4e6367	0.20155106
70	0xbe998307	-0.29982778
71	0xbe243bea	-0.1603848
72	0x3d1feecf	0.039046105
73	0x3e502041	0.20324804
74	0x3e76cdfa	0.24102011
75	0x3e67a2fb	0.22620766
76	0x3de283a7	0.11060267
77	0xbeb1915a	-0.34681207
78	0x3d0d4bbe	0.03449606
79	0xbe83a440	-0.2571125
80	0xbe9ba046	-0.30395716
81	0x3ea7d6bd	0.3278102
82	0x3e9eb392	0.30996376
83	0xbeb14672	-0.34624058
84	0x3da089b2	0.07838763
85	0x3c443104	0.011974577
86	0xbc736040	-0.014854491
87	0xbd7e2ce0	-0.062054515
88	0x3e244d68	0.16045153
89	0xbe92f2a6	-0.2870075
90	0x3dddb1a7	0.108249
91	0x3d98e552	0.074656144
92	0x3e969f61	0.2941847
93	0x3e2b13f8	0.16706836
94	0xbea0d785	-0.31414428
95	0xbe3fc70d	-0.18728276
96	0x3e7750a5	0.24151857
97	0x3dd6bde5	0.10485438
98	0xbe84834e	-0.25881428
99	0xbe511f04	-0.20421988
100	0x3ea90173	0.33008918
101	0x3e1b5be9	0.1517178
102	0xbe25013c	-0.16113752
103	0xbe340f9b	-0.17584078
104	0xbec1148c	-0.3771099
105	0x3d400c19	0.046886537
106	0xbf0581e1	-0.52151304
107	0xbe4f3023	-0.20233206
108	0x3d015a03	0.031579982
109	0x3d4aba3e	0.04949402
110	0xbdb92492	-0.09040178
111	0x3e467ece	0.1938431
112	0xbe86dffe	-0.26342767
113	0x3e9a05dc	0.30082595
114	0x3e80475f	0.25054452
115	0xbe930c4c	-0.2872032
116	0xbd8b8b6e	-0.068137035
117	0xbb37da34	-0.0028053643
118	0x3d891410	0.0669328
119	0x3d1857ed	0.037193228
120	0x3e1ff2a6	0.15619907
121	0x3d3b54a6	0.045735024
122	0xbe010b62	-0.12601998
123	0x3dda0a77	0.10646527
124	0xbf07a38f	-0.52983946
125	0xbe52c9b2	-0.20584753
126	0x3d8ff038	0.0702824
127	0x3d71e3b6	0.059055053
128	0xbe1851fd	-0.14875026
129	0xbea11b15	-0.31465974
130	0xbcdaa5f9	-0.02669047
131	0x3e0ea977	0.13931833
132	0xbe7347e3	-0.23757891
133	0x3c6f5cc5	0.01460952
134	0x3e84a811	0.25909474
135	0x3bc26612	0.005932578
136	0x3c717a5f	0.014738648
137	0xbdb5b04b	-0.08871516
138	0x3cd7b78c	0.02633264
139	0x3d862178	0.065493524
140	0x3eb04e72	0.3443485
141	0xbc4f2c89	-0.012644895
142	0x3f2388d4	0.6388066
143	0xbd85b948	-0.0652948
144	0xbea9be03	-0.3315278
145	0xbe37a127	-0.17932568
146	0x3e739243	0.23786263
147	0xbd975254	-0.0738875
148	0xbe60878d	-0.21926709
149	0xbec10dff	-0.3770599
150	0xbe93f0bf	-0.28894612
151	0xbe3837e3	-0.17990069
152	0xbd8d89cc	-0.06911048
153	0x3e45ff23	0.19335608
154	0x3e5afc3b	0.21385281
155	0xbeb14ace	-0.34627384
156	0x3e876d57	0.26450607
157	0xbe335f9a	-0.17516938
158	0xbd9b22f1	-0.07575024
159	0xbccb7a6d	-0.02483865
160	0xbd665d03	-0.056241047
161	0xbd53e772	-0.051734395
162	0xbecaf6a4	-0.39641297
163	0xbec43364	-0.38320458
164	0xbca3bbe3	-0.019987052
165	0x3d3c0c14	0.045909956
166	0xbe068f92	-0.13140705
167	0x3e2c25b9	0.16811265
168	0xbe6a53bd	-0.22883506
169	0x3d636c0c	0.055522963
170	0x3ebdc0dc	0.37061203
171	0xbe4a5dd6	-0.19762358
172	0x3e8f11f9	0.279434
173	0xbcf56f15	-0.029960195
174	0xbec96b4a	-0.39339668
175	0x3e23b256	0.15985999
176	0xba59f075	-0.0008313724
177	0xbdee4de1	-0.11635948
178	0x3eae0523	0.33988294
179	0xbe8ee671	-0.27910188
180	0x3a38e4a1	0.00070531113
181	0xbdc44d3e	-0.09585045
182	0x3e663077	0.22479425
183	0x3c3a1837	0.011358312
184	0x3e09fa56	0.13474402
185	0x3dd96ff6	0.10617058
186	0xbdca7860	-0.09886241
187	0xbda848f7	-0.08217042
188	0xbeb2b0b4	-0.3490044
189	0x3e041a3a	0.1290063
190	0x3e90d512	0.2828756
191	0x3e32c194	0.17456657
192	0xbe570c0d	-0.21000691
193	0x3d97fa75	0.07420818
194	0xbe447822	-0.19186452
195	0xbe21a7a1	-0.15786602
196	0xbe5ddcee	-0.21666309
197	0x3e33cbbc	0.17558187
198	0xbe1f361a	-0.15547982
199	0x3c6360bd	0.013878045
200	0x3d60775b	0.054801326
201	0x3e8fc963	0.28083333
202	0xbe8048de	-0.25055593
203	0xbe4b4996	-0.1985229
204	0xbe820d73	-0.25400886
205	0x3e59cb54	0.2126897
206	0xbe3c39e4	-0.18381459
207	0x3e8e2049	0.27759007
208	0x3dbe43a7	0.092902474
209	0xbbc98fad	-0.0061511607
210	0xbc4de121	-0.012565882
211	0xbd8b88dd	-0.06813214
212	0x3dd57d74	0.10424319
213	0xbdc18b72	-0.09450425
214	0xbd99fcd0	-0.07518923
215	0x3d913c31	0.07091559
216	0xbe6389af	-0.22220491
217	0xbdb11b39	-0.086477704
218	0x3ec308ed	0.38092747
219	0xbe512e5b	-0.2042784
220	0xbdd997ee	-0.106246814
221	0x3ea3cf36	0.31994027
222	0x3d076d30	0.033063114
223	0xbda08d6a	-0.078394726
224	0xbe8ed018	-0.27893138
225	0x3e5a15d2	0.21297386
226	0xbe4bc7cb	-0.19900434
227	0xbd4d933b	-0.050189238
228	0xbdf62df1	-0.120204814
229	0xbd53ac76	-0.051678143
230	0x3c8884b1	0.016664835
231	0x3e9ab76b	0.30218062
232	0xbdd85fdf	-0.10565161
233	0x3e598b16	0.21244463
234	0x3e4d1e54	0.200311
235	0xbea008ed	-0.3125681
236	0x3e5831e3	0.2111278
237	0xbe412da2	-0.18865064
238	0xbe272277	-0.16321741
239	0x3e220271	0.15821244
240	0x3ccc113a	0.024910558
241	0x3e5e45aa	0.21706262
242	0xbe238e3b	-0.15972225
243	0xbd1b3b45	-0.03789832
244	0x3e6af2e8	0.22944224
245	0xbeb29a67	-0.34883425
246	0x3e943906	0.28949755
247	0xbe78b7e3	-0.24288897
248	0x3d1af2a6	0.037829064
249	0xbd7a45dc	-0.06110178
250	0xbe088d7f	-0.13335226
251	0x3d1d80b1	0.038452808
252	0x3e9b19bb	0.30293068
253	0xbdab908e	-0.08377181
254	0xbe500267	-0.20313416
255	0xbdd8a70a	-0.10578735

0.bias f4 [296]
0	0x3eb0a934	0.34504092
1	0xb973acc4	-0.00023238646
2	0xbecef33e	-0.40419954
3	0xbe82ec33	-0.2557083
4	0x3e988a0f	0.2979283
5	0xbbc9c394	-0.006157348
6	0xbe675923	-0.22592597
7	0x3e1f2657	0.15541969
8	0x3c0a5684	0.0084434785
9	0xbec6e0d8	-0.38843417
10	0x3ef4d361	0.4781752
11	0x3e15384f	0.14572261
12	0x3e9e47e8	0.30914235
13	0x3c71bea6	0.014754927
14	0xbdf505b5	-0.11963979
15	0xb905be8e	-0.00012754856
16	0x3dde251b	0.10846921
17	0xb92d582f	-0.00016531417
18	0x38e00106	0.00010681343
19	0xbee482f0	-0.44631147
20	0xbcd3c897	-0.025852485
21	0x3cf89ed8	0.03034918
22	0xb774e53c	-1.4596906e-05
23	0xbe541283	-0.20710187
24	0xbec816c0	-0.39079857
25	0x3e156323	0.14588599
26	0xba65e65e	-0.0008769984
27	0xbf06ffe2	-0.52734196
28	0x3eb16d9c	0.34653938
29	0x3de1f15c	0.11032364
30	0xbe632157	-0.22180687
31	0xbebdeff1	-0.37097123
32	0x3ec5866a	0.38579112
33	0x3bf32b9b	0.0074209697
34	0xbe83ec4c	-0.25766218
35	0x3e673b9e	0.22581336
36	0x36439ea2	2.91496e-06
37	0x39a32b65	0.00031122114
38	0xbe8988f3	-0.26862296
39	0xbee07da7	-0.43845865
40	0xbea07789	-0.31341198
41	0xb893e757	-7.0525966e-05
42	0x3974ad80	0.00023334287
43	0x3e984b88	0.29745126
44	0x383359a4	4.276041e-05
45	0x3610c372	2.1571436e-06
46	0x3dab917c	0.08377358
47	0xbea151f9	-0.31507853
48	0xbe496f47	-0.19671355
49	0x3d688982	0.056771763
50	0xbe9ba6f1	-0.30400804
51	0x3e3be78f	0.18350051
52	0xb858f45a	-5.1725983e-05
53	0xbf06adca	-0.5260893
54	0xbef1cadb	-0.4722508
55	0x391e1a0f	0.00015077762
56	0x3e3b6489	0.1830007
57	0xb858a249	-5.1649553e-05
58	0xbead79ab	-0.33881888
59	0xbdb191ed	-0.08670411
60	0xb838c4a3	-4.405215e-05
61	0xb94f0d48	-0.00019746006
62	0x3d81928f	0.06326782
63	0x398bc6ff	0.0002666041
64	0xbc975869	-0.018474774
65	0x3e829dcb	0.2551101
66	0x3ea634ef	0.3246226
67	0x3ea41138	0.32044387
68	0x3e96d894	0.2946211
69	0xbe13ce32	-0.14434126
70	0xb8252769	-3.937577e-05
71	0xb820f167	-3.8371796e-05
72	0x3dba53f2	0.090980425
73	0x3e8d4c02	0.27597052
74	0xb906f42b	-0.00012870195
75	0xbe8067dc	-0.25079238
76	0xbead5340	-0.33852577
77	0x3e87f61e	0.2655496
78	0xbe765ae0	-0.24058104
79	0x3a61c8b3	0.00086129754
80	0xbebfb9f0	-0.37446547
81	0xbe5d117a	-0.21588698
82	0xb8e02450	-0.00010687916
83	0x3db30e0f	0.08742916
84	0xbe32d9a7	-0.1746584
85	0xbdd4b189	-0.10385425
86	0x3e6416af	0.22274278
87	0xbe78cb19	-0.24296226
88	0xbec6a0fb	-0.38794693
89	0xbca13db1	-0.019682737
90	0x3f26d1f3	0.6516411
91	0x3ce3327e	0.027734037
92	0x39a75b94	0.00031920953
93	0x38c53204	9.403008e-05
94	0x3e74e909	0.23917021
95	0xbd84f527	-0.064920716
96	0x3e870ace	0.2637543
97	0x3c6c3674	0.0144172795
98	0xb82984be	-4.0416366e-05
99	0xb9458ed2	-0.00018840589
100	0xbe17399d	-0.14768071
101	0x3eddf271	0.4334903
102	0x3e320866	0.17386016
103	0xbef97e6c	-0.48729265
104	0xbed28337	-0.41115734
105	0x397f2b4a	0.00024334822
106	0x3e7f219e	0.24915168
107	0xbe2c8cb6	-0.16850552
108	0x3ecbc1e0	0.39796352
109	0xbe5f9314	-0.2183345
110	0xbeccb391	-0.39980748
111	0x3b9c745c	0.0047746133
112	0xbe72c85c	-0.23709244
113	0xbb12a2a7	-0.002237478
114	0xbdfd5e28	-0.123714745
115	0xb7b6dcda	-2.1798933e-05
116	0xbea747e8	-0.32672048
117	0xbee90c37	-0.45517132
118	0xb93ea0ac	-0.00018179667
119	0xbbb0ad7e	-0.0053917756
120	0xbe66bc20	-0.22532701
121	0x38805e8e	6.121128e-05
122	0xbebc4af2	-0.3677593
123	0x3ba040e8	0.00489055
124	0x3e3f0251	0.18653227
125	0x3ea1ecca	0.31625968
126	0xbee054b1	-0.43814614
127	0xbdc7589f	-0.097337
128	0x3dc3d847	0.09562736
129	0x3eac8384	0.33694088
130	0xbea35981	-0.31904224
131	0x3e14c39c	0.14527744
132	0x3bd439b9	0.0064766076
133	0x3e74ea23	0.23917441
134	0xbed29ea7	-0.41136667
135	0x3ea128f0	0.31476545
136	0xbe36ce8c	-0.17852229
137	0xbe9fae5f	-0.31187722
138	0x3838651c	4.3963184e-05
139	0x3e8cbedb	0.2748936
140	0xbdbf0948	-0.09327942
141	0x3e2fcca7	0.17167912
142	0x39001704	0.00012215605
143	0x3d37b496	0.044849955
144	0x3e917bdf	0.2841482
145	0x3b42df90	0.0029735304
146	0xbe8f0c5b	-0.27939114
147	0xbe364de3	-0.17803149
148	0x3d9517b9	0.07279915
149	0xbeff909e	-0.49915022
150	0x3b88c2b7	0.0041736024
151	0xbdadaba7	-0.08480006
152	0xb7d36336	-2.5199359e-05
153	0x3d26f241	0.040758375
154	0xbeb77855	-0.35833994
155	0xbe48089c	-0.19534534
156	0x3e326fef	0.17425512
157	0xbef4407b	-0.47705445
158	0x3ea2de61	0.31810287
159	0xbeb49e4b	-0.35277018
160	0x39a40907	0.00031287243
161	0xb90aeb3f	-0.00013248342
162	0x3be3843a	0.006943253
163	0xbe995172	-0.2994495
164	0x3d76d6ed	0.060263563
165	0x3db38c40	0.08766985
166	0x3ea66ec4	0.32506382
167	0xbeac3856	-0.3363673
168	0xbe5e8961	-0.21732093
169	0x38b0ef24	8.4368774e-05
170	0xb8be56db	-9.076084e-05
171	0xbe6b2332	-0.22962645
172	0xbeeb1473	-0.4591404
173	0xbea703d0	-0.32620096
174	0xbea1c16e	-0.31592888
175	0xbe267cfd	-0.16258617
176	0xbe8a3fc2	-0.27001768
177	0xbe9c26a5	-0.30498233
178	0xb89395ae	-7.037386e-05
179	0x3e802990	0.2503171
180	0xb986525c	-0.00025619834
181	0x3c5d728e	0.0135160815
182	0x3c324657	0.010881028
183	0x3e8d284e	0.27569813
184	0xbe7189fd	-0.23587795
185	0xb90c960a	-0.00013407334
186	0x3ecdf5cc	0.4022659
187	0x3ea44dbd	0.3209056
188	0xbee99c1b	-0.45626912
189	0xb7a1adab	-1.9273566e-05
190	0xb8cafc73	-9.679133e-05
191	0xbe69e62f	-0.22841714
192	0xbe83a30b	-0.2571033
193	0xbeb13578	-0.34611106
194	0x3e492b9a	0.19645539
195	0xbdf1411c	-0.11779997
196	0x3909bd2c	0.0001313581
197	0x3e652c20	0.22380114
198	0xbe84305a	-0.2581814
199	0xb731b1da	-1.0591431e-05
200	0x3f02c8b9	0.5108753
201	0xbe901f3b	-0.28148827
202	0x3e483149	0.19550051
203	0xb8d7edae	-0.0001029627
204	0x3e388e2d	0.18022986
205	0x3e7f3c94	0.24925452
206	0x3bc1026f	0.0058901827
207	0xb90ac7e1	-0.00013235166
208	0xbeb66b2f	-0.3562865
209	0x3d9dc6db	0.07703944
210	0x3e355992	0.1770995
211	0xbdbb9122	-0.09158541
212	0xbf0f828c	-0.56058574
213	0x3ea72ec9	0.32652882
214	0xbc5870d0	-0.01321049
215	0x3d584b20	0.05280602
216	0xbde9aedc	-0.11410305
217	0x3e3d69a2	0.18497327
218	0x3eb9cb3c	0.36287868
219	0x3ef90139	0.48633745
220	0xbe2c9c16	-0.16856417
221	0x3e90766a	0.28215343
222	0x3e1274dc	0.14302391
223	0xb8dd80b0	-0.00010562071
224	0xbea40b7a	-0.32040006
225	0xbe295309	-0.16535582
226	0xbea2a283	-0.31764612
227	0x3e15dac8	0.1463424
228	0x3ead4f8b	0.3384975
229	0x3e624974	0.22098333
230	0x3da0eb24	0.078573495
231	0x3a678ce7	0.0008832947
232	0x3ecd3f6f	0.40087458
233	0xbe8ee8d1	-0.27912
234	0x38913dc0	6.9256406e-05
235	0xbeec6f32	-0.46178585
236	0xbc0cd641	-0.008596004
237	0xb8a9bced	-8.093738e-05
238	0x3d54035b	0.051761013
239	0xbe7cc73b	-0.24685375
240	0x3870d2f7	5.7416935e-05
241	0xbece7e9c	-0.4033097
242	0xbed5c666	-0.41752928
243	0x386add52	5.5996068e-05
244	0xbf085a59	-0.5326286
245	0x3d357ca6	0.044308327
246	0xbecfcd90	-0.4058652
247	0xbe7fd8ca	-0.24985042
248	0xbdf3ec31	-0.11910284
249	0xbeb59a18	-0.35469127
250	0x3e9c8c53	0.3057581
251	0x3e68799b	0.22702639
252	0xbe7dcb6f	-0.24784635
253	0xb90e82a9	-0.0001359085
254	0x3e8bb1ee	0.27284187
255	0x39504f8f	0.00019866064

2.weight f4 [296]
0	0x3f682a4f	0.9068956
1	0x3f777acb	0.9667174
2	0x3f4dfc15	0.8046277
3	0x3f83108f	1.0239428
4	0x3f508bd5	0.81463367
5	0x3f6f1d12	0.9340373
6	0x3f5839cb	0.84463185
7	0x3f584ae8	0.844893
8	0x3f8f271f	1.1183814
9	0x3f4cc0a4	0.79981446
10	0x3fadd5de	1.3580892
11	0x3f883ee1	1.0644189
12	0x3f7e8013	0.99414176
13	0x3f54b96f	0.8309545
14	0x3f88f397	1.0699338
15	0x3f711d4a	0.94185317
16	0x3f59ba23	0.8504965
17	0x3f714488	0.94245195
18	0x3f6d212f	0.9262876
19	0x3f8471f2	1.0347273
20	0x3f540d41	0.82832724
21	0x3f9a6c71	1.2064344
22	0x3f81a70e	1.0129106
23	0x3f77383c	0.9657018
24	0x3f4de25e	0.80423534
25	0x3f694e51	0.91135126
26	0x3f875d6a	1.0575383
27	0x3f804c95	1.0023371
28	0x3f638978	0.88881636
29	0x3f909885	1.1296545
30	0x3f7286cb	0.9473693
31	0x3f848d51	1.0355626
32	0x3f4dd7bf	0.8040733
33	0x3f9426fc	1.1574397
34	0x3f5e783c	0.86902213
35	0x3f75c22b	0.959994
36	0x3f75f4db	0.96076745
37	0x3f8bde94	1.09273
38	0x3f898985	1.0745093
39	0x3f7d2654	0.9888661
40	0x3f4a3b3a	0.7899662
41	0x3f6b7012	0.9196788
42	0x3f49ff41	0.7890511
43	0x3f67f835	0.9061311
44	0x3f827b15	1.0193812
45	0x3f738f78	0.9514079
46	0x3f5bb755	0.8582662
47	0x3f5865da	0.84530413
48	0x3f627db5	0.88473064
49	0x3f66fdfc	0.902313
50	0x3f63596a	0.8880831
51	0x3f908840	1.129158
52	0x3f8fddac	1.1239524
53	0x3f83ed08	1.0306711
54	0x3f742443	0.9536783
55	0x3f6d6896	0.9273771
56	0x3f69c7bb	0.9132039
57	0x3f76c131	0.96388537
58	0x3f7d3bea	0.98919547
59	0x3f7e46ff	0.9932708
60	0x3f7e7656	0.99399316
61	0x3f88790f	1.0661944
62	0x3f805f61	1.0029107
63	0x3f77e377	0.9683146
64	0x3f84b14c	1.0366607
65	0x3f8b2b62	1.0872614
66	0x3f48c28a	0.78421843
67	0x3f5511ae	0.832301
68	0x3f74f530	0.95686626
69	0x3f7daa0a	0.99087584
70	0x3f6c6c79	0.92353016
71	0x3f6262ed	0.884322
72	0x3f688bbf	0.90838236
73	0x3f968245	1.1758505
74	0x3f73f990	0.9530268
75	0x3f704bcb	0.9386565
76	0x3f5cf388	0.863091
77	0x3f893f0f	1.0722369
78	0x3f789505	0.97102386
79	0x3f52814b	0.82228535
80	0x3f85471c	1.0412326
81	0x3f7d7ade	0.99015605
82	0x3f833e0f	1.0253314
83	0x3f512ace	0.8170594
84	0x3f62c0e5	0.88575584
85	0x3f8e26ca	1.1105587
86	0x3f99a9fd	1.2005001
87	0x3f78d60e	0.9720162
88	0x3f8299f9	1.0203239
89	0x3f63184b	0.88708943
90	0x3fa3da85	1.2801062
91	0x3f85094b	1.0393461
92	0x3f8401ac	1.031301
93	0x3f776e5d	0.96652776
94	0x3f5d5f01	0.8647309
95	0x3f871c79	1.0555564
96	0x3f572a0c	0.84048533
97	0x3f8a2ef2	1.0795577
98	0x3f6fdbcd	0.93694764
99	0x3f729c71	0.9476996
100	0x3f82c476	1.0216205
101	0x3fa2ff98	1.2734251
102	0x3f6d25b0	0.9263563
103	0x3f780aa6	0.9689125
104	0x3f84ff34	1.0390382
105	0x3f67f890	0.9061365
106	0x3f5d7456	0.8650564
107	0x3f61cf78	0.882072
108	0x3fbaf9d7	1.4607495
109	0x3f739156	0.9514364
110	0x3f73c27d	0.9521864
111	0x3f699e03	0.9125673
112	0x3f4354d0	0.7630129
113	0x3f817a9f	1.0115546
114	0x3f61691d	0.88051015
115	0x3f811598	1.0084715
116	0x3f68a5ac	0.90877795
117	0x3f7d882b	0.990359
118	0x3f619f93	0.88134116
119	0x3f7b510e	0.98170555
120	0x3f8b0dde	1.0863607
121	0x3f7c891a	0.986467
122	0x3f6a0a82	0.91422284
123	0x3f53a02a	0.82666266
124	0x3f5ef52c	0.8709285
125	0x3f5a7e29	0.85348755
126	0x3f80a45f	1.0050162
127	0x3f91fa0b	1.1404432
128	0x3f5b4a60	0.8566036
129	0x3f6b6a0a	0.9195868
130	0x3f74dc78	0.9564891
131	0x3f7ba3c1	0.98296744
132	0x3f5de301	0.86674505
133	0x3f50a934	0.81508183
134	0x3f7aaf6b	0.97923917
135	0x3f56604e	0.837407
136	0x3f854391	1.0411245
137	0x3f6b65a9	0.91951996
138	0x3f724680	0.94638824
139	0x3f3ec0f2	0.7451316
140	0x3f5aa20c	0.85403514
141	0x3fa3da53	1.2801002
142	0x3fa24441	1.267708
143	0x3f6aacfb	0.916702
144	0x3f8d75cc	1.1051574
145	0x3f73152c	0.9495418
146	0x3f63d90b	0.89003056
147	0x3f72684b	0.9469039
148	0x3f77714b	0.96657246
149	0x3f7e3c25	0.99310523
150	0x3f6650ba	0.8996693
151	0x3f5b95a4	0.8577521
152	0x3f6c4aef	0.9230184
153	0x3f8abf8f	1.0839709
154	0x3f80ff27	1.0077866
155	0x3f5db549	0.86604744
156	0x3f57afd9	0.842527
157	0x3f82a8a0	1.020771
158	0x3f50cfec	0.81567264
159	0x3f433037	0.76245445
160	0x3f8bc07a	1.0918114
161	0x3f638c3f	0.88885874
162	0x3f6a143e	0.9143714
163	0x3f84af43	1.0365986
164	0x3f6fb018	0.9362807
165	0x3f8074d7	1.0035657
166	0x3f52d049	0.8234907
167	0x3f717b4d	0.9432877
168	0x3f75d377	0.96025795
169	0x3f6a5efe	0.91551197
170	0x3f7ba20c	0.9829414
171	0x3f868ca5	1.0511671
172	0x3f8496e9	1.0358554
173	0x3f6f15db	0.93392724
174	0x3f5fd376	0.8743204
175	0x3f6f8efd	0.9357756
176	0x3f56d538	0.83919096
177	0x3f6345cd	0.8877838
178	0x3f6c5525	0.9231742
179	0x3f70782e	0.9393338
180	0x3f625710	0.88414097
181	0x3f72eb99	0.94890743
182	0x3f55c8ea	0.83509696
183	0x3f752cee	0.9577168
184	0x3f6dc8b2	0.9288436
185	0x3f78f6f2	0.9725181
186	0x3f53ce3a	0.8273655
187	0x3f7e4bf4	0.99334645
188	0x3f835cb3	1.0262665
189	0x3f6a6aef	0.9156942
190	0x3f89a287	1.0752724
191	0x3f857281	1.0425569
192	0x3f684701	0.90733343
193	0x3f7b4c9d	0.9816378
194	0x3f58b926	0.84657514
195	0x3f6538db	0.8953988
196	0x3f6ea0fe	0.93214405
197	0x3f8d9669	1.1061527
198	0x3f880ac2	1.0628283
199	0x3f86e722	1.0539286
200	0x3fcfd332	1.6236327
201	0x3f7e1b88	0.9926076
202	0x3f947d77	1.1600789
203	0x3f60fc66	0.8788513
204	0x3f5cd49a	0.86261904
205	0x3f562d0c	0.83662486
206	0x3f81e615	1.014834
207	0x3f8191d7	1.0122632
208	0x3f5be62a	0.8589808
209	0x3f8479a2	1.0349619
210	0x3f56b1ce	0.8386506
211	0x3f66c8a2	0.9014989
212	0x3f79574e	0.9739884
213	0x3f4d094d	0.80092317
214	0x3f6abe08	0.91696215
215	0x3fa241ab	1.267629
216	0x3f552544	0.8325999
217	0x3f73c531	0.95222765
218	0x3f52e97e	0.8238753
219	0x3f893395	1.0718867
220	0x3f5c403b	0.8603551
221	0x3f5ec409	0.87017876
222	0x3f6f890e	0.93568504
223	0x3f802ad3	1.0013069
224	0x3f50a6ed	0.8150471
225	0x3f5db813	0.86609
226	0x3f507d2e	0.8144101
227	0x3f8cb3b7	1.0992345
228	0x3f66b61a	0.90121615
229	0x3f51b080	0.8190994
230	0x3f54b70d	0.83091813
231	0x3f56fbee	0.83978164
232	0x3f4f773e	0.81041324
233	0x3f56ae14	0.8385937
234	0x3f7d4508	0.9893346
235	0x3f5c428f	0.8603906
236	0x3f825e82	1.0185091
237	0x3f8add3c	1.0848765
238	0x3fa5ce3a	1.295356
239	0x3f554fa6	0.8332466
240	0x3f828abc	1.0198588
241	0x3f60c1d6	0.8779577
242	0x3f663072	0.8991767
243	0x3f5f4ddf	0.87228197
244	0x3f866d4e	1.0502107
245	0x3f5bc5dd	0.8584879
246	0x3f522b2e	0.82097137
247	0x3f65fb17	0.8983626
248	0x3f8f079a	1.1174195
249	0x3f84314a	1.0327542
250	0x3f5fe4cb	0.87458485
251	0x3fd3d859	1.6550399
252	0x3f5a4f1d	0.8527697
253	0x3f5dfc31	0.8671294
254	0x3f890b72	1.0706618
255	0x3f698126	0.9121269

2.bias f4 [296]
0	0x3bfad89b	0.007655216
1	0x3e06a255	0.13147862
2	0x3d913ea4	0.07092026
3	0x3bda28dd	0.0066577033
4	0x3e4ef9cf	0.20212482
5	0x3e363a75	0.17795737
6	0x3cc27c56	0.023740929
7	0xbc9a8b34	-0.018865205
8	0x3de8f288	0.11374384
9	0x3e1bd29d	0.15217061
10	0xbbb5d99b	-0.0055496222
11	0x3d92b738	0.071638525
12	0x3dc7bfbf	0.097533695
13	0x3df449a5	0.11928109
14	0xbde0279f	-0.10945057
15	0x3e515423	0.20442252
16	0x3d08fea4	0.03344597
17	0x3e77bf40	0.2419405
18	0x3e2ffeaf	0.17186998
19	0xbd07f552	-0.03319294
20	0x3d91a47f	0.07111453
21	0x3e467489	0.19380392
22	0x3e2dd58f	0.16975997
23	0x3e0e5e1d	0.13903089
24	0x3dc0776f	0.0939778
25	0x3cd2d332	0.025735471
26	0x3d653043	0.05595423
27	0x3d575f05	0.052580852
28	0xbc8e70be	-0.017387744
29	0x3cc017d2	0.023448858
30	0x3ce13889	0.027492778
31	0x3dbed5e9	0.09318144
32	0x3dd3f616	0.103496715
33	0x3c0712f7	0.008244268
34	0x3dd89ebd	0.10577152
35	0xbbde9ad9	-0.0067933616
36	0x3dd8edbc	0.10592219
37	0x3d9d8205	0.07690815
38	0x3d00b1ee	0.031419687
39	0x3aa3f7ca	0.001250976
40	0x3e396022	0.18103078
41	0x3e5146f4	0.20437223
42	0x3e43733b	0.19086926
43	0x3e116014	0.14196807
44	0x3cf5d399	0.030008124
45	0x3e3f9c89	0.18712057
46	0x3da3d509	0.079996176
47	0x3d02240f	0.03177267
48	0xbcf4b6f8	-0.029872403
49	0x3daaf2ec	0.08347115
50	0x3e3177f1	0.1733091
51	0x3d8de618	0.069286525
52	0x3df513ad	0.119666435
53	0x3dcf9fa1	0.10137869
54	0x3e04deb9	0.12975587
55	0x3e391413	0.18074064
56	0x3da09fb5	0.07842962
57	0x3e31a71b	0.17348902
58	0x3dc0fcbf	0.094232075
59	0x3d6f058b	0.058354896
60	0x3e70428a	0.23462883
61	0x3c89ef0c	0.01683762
62	0x3d909f9a	0.070616916
63	0x3df3149f	0.118691675
64	0xbd165c87	-0.036709335
65	0x3ce8b8b6	0.02840839
66	0x3d92642e	0.07148014
67	0x3d38283d	0.04496025
68	0x3d7ad4a2	0.06123794
69	0x3d9d2127	0.07672339
70	0x3e350514	0.17677718
71	0x3e2eed3f	0.1708269
72	0x3c562f71	0.013072834
73	0x3c81751a	0.015802909
74	0x3e25ef7e	0.1620464
75	0xbbbe420a	-0.0058062123
76	0xbd847691	-0.06467927
77	0x3d8cf782	0.06883146
78	0x3d5c3972	0.05376572
79	0x3d9e1942	0.07719661
80	0x3d94c018	0.072632015
81	0x3e091da4	0.13390213
82	0x3df1aee5	0.118009366
83	0x3dca3cfe	0.098749146
84	0x3ddcc928	0.10780555
85	0xbb67084a	-0.0035252743
86	0x3c98f796	0.018672746
87	0x3d9e0eec	0.0771769
88	0xbc7a5b25	-0.01528052
89	0x3dce9a2a	0.10087998
90	0x3c7d7a1b	0.015471007
91	0xbd675131	-0.056473915
92	0x3e25545d	0.16145463
93	0x3e37d008	0.17950451
94	0x3ceb4d36	0.02872334
95	0xbc74a477	-0.01493179
96	0x3d08585e	0.0332874
97	0x3d04ed53	0.032452893
98	0x3e34dcf5	0.17662413
99	0x3e3b2252	0.18274811
100	0x3cb6e66d	0.022326672
101	0x3d0f1b11	0.034937922
102	0x3d109835	0.035301406
103	0x3db4694e	0.08809148
104	0x3cc73d90	0.024321347
105	0x3e017a07	0.12644206
106	0x3bd516b8	0.0065029524
107	0xbbf01fc1	-0.007328004
108	0xbc969515	-0.018381635
109	0x3e34877d	0.1762981
110	0xbc8d09ef	-0.01721665
111	0x3de6efc4	0.112762004
112	0x3dbd129a	0.092320636
113	0x3ddf3bc7	0.109000735
114	0x3e0ba45d	0.13636918
115	0x3e125712	0.14291027
116	0x3e010b93	0.12602071
117	0x3c61086c	0.013734918
118	0x3e425abf	0.1897993
119	0x3d4cc72c	0.049994633
120	0xbd1e4686	-0.038641475
121	0x3e0a1177	0.13483225
122	0x3d889000	0.06668091
123	0x3dad7e3f	0.08471345
124	0xbde65bf8	-0.112480104
125	0x3dddcd13	0.108301304
126	0xbc78e4bd	-0.015191254
127	0xbe15a325	-0.14613016
128	0x3dbd940a	0.09256752
129	0xbc854494	-0.016268052
130	0x3e2c7476	0.16841301
131	0x3c0bf3a3	0.008541974
132	0x3e056313	0.13026075
133	0x3df0a97f	0.11751079
134	0x3d1b5020	0.03791821
135	0x3d83678d	0.06416235
136	0x3dd64638	0.10462612
137	0x3e5fb005	0.2184449
138	0x3de7a000	0.113098145
139	0x3dd5b511	0.10434926
140	0x3e05ac94	0.13054115
141	0xbda7c2a0	-0.08191419
142	0xbd171540	-0.0368855
143	0x3d9f78a9	0.07786686
144	0x3d4b3308	0.049609214
145	0x3e10ca23	0.14139609
146	0x3d897fa6	0.067138
147	0x3d6c1ac6	0.05764272
148	0x3e1ee4bb	0.15516941
149	0xbc39f883	-0.011350754
150	0x3db60d28	0.08889228
151	0x3da56e59	0.08077688
152	0x3ddc81d2	0.10766949
153	0xbd6b69d8	-0.057473987
154	0xbc3027a0	-0.010751635
155	0x3e238b6a	0.15971151
156	0x3dc34d4e	0.09536229
157	0xbcc0965c	-0.023509197
158	0x3e3ef774	0.18649083
159	0x3db7063b	0.08936735
160	0x3d3ea7e5	0.046546835
161	0x3e1455c5	0.14485843
162	0x3e2e6806	0.1703187
163	0xbd93ab24	-0.07210377
164	0x3d0e1e32	0.034696765
165	0x3d9f4a6e	0.07777868
166	0xbd291fc7	-0.04129007
167	0x3c5036b8	0.0127083585
168	0x3e312c5d	0.1730208
169	0x3e55e1e7	0.20886956
170	0x3e442020	0.1915288
171	0x3d4aa0e3	0.04946984
172	0x3d7d033a	0.061770655
173	0x3e32b1a4	0.17450577
174	0x3dc85b38	0.097830236
175	0x3d92a2f6	0.071599886
176	0x3dcf16ff	0.10111808
177	0x3dd06e66	0.10177307
178	0x3e41cfa8	0.18926871
179	0x3cfeb176	0.03109048
180	0x3e6f6971	0.23380066
181	0x3d5f0211	0.05444533
182	0x3da76170	0.081728816
183	0x3b1d9ec7	0.0024050937
184	0xbcf072f9	-0.029351698
185	0x3e293109	0.16522612
186	0x3d8e9dc7	0.069636874
187	0xbc4d39a5	-0.012525951
188	0x3a573f33	0.00082110165
189	0x3e0ef981	0.13962366
190	0x3d81789e	0.06321834
191	0x3c670b80	0.014101863
192	0x3d4c0223	0.049806725
193	0xbd781321	-0.060565118
194	0x3de7f7d0	0.11326563
195	0x3e2d7f0b	0.16942994
196	0x3e0a752c	0.1352126
197	0xbd7fbba1	-0.062434796
198	0x3dbbc617	0.09168642
199	0x3dbf49f8	0.0934028
200	0x3dbeea3e	0.09322022
201	0xbc9213b9	-0.01783167
202	0xbd3dff70	-0.046386182
203	0x3da33130	0.07968366
204	0xbc9cc873	-0.01913855
205	0x3df34978	0.118792474
206	0x3dd25ba6	0.10271387
207	0x3db772fa	0.08957477
208	0xbca29670	-0.019847125
209	0x3e092b81	0.13395502
210	0x3dddc17b	0.10827919
211	0x3df2cdad	0.11855636
212	0xbcd80b35	-0.026372531
213	0x3dc30546	0.0952249
214	0x3dc2c33e	0.09509896
215	0xbd637eb9	-0.055540774
216	0x3d1e365c	0.03862606
217	0x3e0337b1	0.12814213
218	0xbd2d6226	-0.04232993
219	0x3bc35562	0.005961106
220	0x3d857623	0.065166734
221	0x3cfd9032	0.030952547
222	0x3dbf5414	0.093422085
223	0x3e44ea57	0.19230019
224	0xbd132318	-0.03592214
225	0x3db9f132	0.090792075
226	0x3e4a478e	0.19753858
227	0xbcb4325d	-0.021996671
228	0x3dbc8188	0.092043936
229	0x3d93f295	0.07224003
230	0x3da1683d	0.0788121
231	0x3d68633d	0.056735266
232	0x3db99608	0.09061819
233	0x3da11b46	0.0786653
234	0x3df058f2	0.11735715
235	0x3dfbafec	0.12289414
236	0x3ddbf7f3	0.10740652
237	0x3e13ee94	0.14446479
238	0x3c8c5f5e	0.017135318
239	0x3e42bd07	0.1901742
240	0x3d7751fe	0.06038093
241	0x3db8cf82	0.09023954
242	0x3d613071	0.054977838
243	0x3dcffb07	0.101553015
244	0x3d053634	0.032522395
245	0x3d0ce319	0.034396265
246	0xbd1c29cd	-0.0381258
247	0x3d15b6de	0.03655135
248	0x3e08f44a	0.13374439
249	0xbd4516fd	-0.048117626
250	0x3e063922	0.13107732
251	0xbcf8b039	-0.030357467
252	0xbd16bd34	-0.036801532
253	0x3e17ea6c	0.14835519
254	0xbd44de64	-0.04806365
255	0x3e0a6397	0.13514553

2.running_mean f4 [296]
0	0x3ec0c5e1	0.3765097
1	0x3e209138	0.15680397
2	0x3d2b125e	0.041765563
3	0x3c38243d	0.011239109
4	0x3efcce20	0.4937601
5	0x3d9d75a8	0.07688457
6	0x3d481d2a	0.048855938
7	0x3e840789	0.25787
8	0x3cf14cc2	0.029455546
9	0x3e0e108f	0.13873504
10	0x3ef540b5	0.4790093
11	0x3e211edd	0.1573443
12	0x3eacf7ad	0.33782712
13	0x3ea05f34	0.31322634
14	0x3b8e180a	0.004336362
15	0x3e09419a	0.13403931
16	0x3e426d16	0.18986925
17	0x3e73a898	0.23794782
18	0x3e7a5325	0.2444578
19	0x3acd52f0	0.0015664976
20	0x3e7dcd07	0.24785243
21	0x3d63bbf9	0.055599187
22	0x3d76c8a5	0.060249943
23	0x3d161964	0.036645308
24	0x3d948c84	0.07253364
25	0x3e54144a	0.20710865
26	0x3c5d6533	0.013512897
27	0x3c022aec	0.007944804
28	0x3ec49524	0.38395035
29	0x3df0a97d	0.11751077
30	0x3ced4606	0.028964054
31	0x3bbe7231	0.0058119525
32	0x3ee4fbcf	0.44723365
33	0x3ccfa68f	0.025347976
34	0x3d57f8e2	0.052727588
35	0x3e740192	0.23828724
36	0x3d167dc8	0.036741048
37	0x3d07e24e	0.033174805
38	0x3b017fec	0.0019760085
39	0x3a86e252	0.0010290837
40	0x3d86e760	0.065871
41	0x3e0da88a	0.13833824
42	0x3ef59f11	0.4797292
43	0x3ea2a241	0.31764415
44	0x3d5c24a2	0.053745873
45	0x3e5ef1e7	0.21771966
46	0x3e8303b1	0.25588754
47	0x3e968834	0.2940079
48	0x3e27c2e2	0.16382936
49	0x3db2824b	0.08716258
50	0x3d0d3159	0.03447089
51	0x3e4bd8f2	0.19906977
52	0x3d048598	0.032353967
53	0x3bfdbbda	0.007743341
54	0x3c43085e	0.01190385
55	0x3db8640e	0.09003459
56	0x3e7baf02	0.24578479
57	0x3dfa9673	0.12235727
58	0x3c8033f5	0.015649775
59	0x3d59829c	0.053103074
60	0x3e3c7dbc	0.18407339
61	0x3d465432	0.04842014
62	0x3e00966f	0.12557386
63	0x3d075aae	0.033045463
64	0x3ca20411	0.01977733
65	0x3e885e5c	0.2663449
66	0x3ee76480	0.45193863
67	0x3eb1b99a	0.34711915
68	0x3ea6f3f7	0.32608005
69	0x3ca67aac	0.020322166
70	0x3dca3103	0.098726295
71	0x3e741412	0.23835781
72	0x3e1b91b3	0.15192299
73	0x3e900c40	0.28134346
74	0x3db4a34f	0.08820211
75	0x3c5375e0	0.012906522
76	0x3d7f8bce	0.062389188
77	0x3e8860bf	0.2663631
78	0x3c82bed2	0.01596013
79	0x3deb3ee0	0.11486602
80	0x3c4dcea9	0.012561479
81	0x3cb9c480	0.022676706
82	0x3d333aec	0.043757364
83	0x3e37357c	0.17891496
84	0x3c8f7007	0.017509473
85	0x3ba2b8f0	0.004965894
86	0x3e67dafb	0.22642128
87	0x3c8e7d43	0.017393714
88	0x3b9f50ed	0.004861942
89	0x3e37aa7a	0.17936125
90	0x3f26de00	0.65182495
91	0x3d69e26a	0.05710069
92	0x3d0d4f30	0.034499347
93	0x3e419081	0.1890278
94	0x3ea7a5bd	0.32743636
95	0x3c5a49e8	0.013323285
96	0x3ea7e898	0.32794642
97	0x3d800c96	0.062524006
98	0x3e0fabe1	0.1403041
99	0x3dc9781a	0.09837361
100	0x3c588d84	0.013217334
101	0x3eddfb50	0.433558
102	0x3e4e5172	0.20148256
103	0x3b9efc33	0.004851842
104	0x3a4d4145	0.00078298553
105	0x3e121c49	0.14268602
106	0x3e9519e9	0.2912133
107	0x3d1e4bac	0.038646385
108	0x3ecbb100	0.39783478
109	0x3cec4363	0.028840726
110	0x3c979d04	0.018507488
111	0x3e4cba29	0.1999289
112	0x3e4604da	0.19337788
113	0x3d351f40	0.044219255
114	0x3de62185	0.11236862
115	0x3d962c71	0.07332695
116	0x3d6f5ba6	0.058437012
117	0x3b2d2912	0.0026422185
118	0x3e436e18	0.19084966
119	0x3d9451e7	0.07242184
120	0x3ba69f1e	0.005084886
121	0x3e1e0dc9	0.15434946
122	0x3d2ff314	0.042956427
123	0x3e253438	0.16133201
124	0x3e4c9329	0.19978012
125	0x3ed1e76c	0.40996873
126	0x3aa5312f	0.0012603159
127	0x3b9eb86b	0.0048437617
128	0x3e4961f8	0.19666278
129	0x3eaebdeb	0.3412927
130	0x3cc3f706	0.0239215
131	0x3e31b6a1	0.17354824
132	0x3e791dc8	0.24327767
133	0x3ebec8b5	0.37262502
134	0x3c5c5756	0.013448557
135	0x3ea560e4	0.32300484
136	0x3bcb398d	0.006201929
137	0x3d0d3687	0.03447583
138	0x3e2a63d8	0.1663965
139	0x3ed5cab2	0.41756207
140	0x3e74335f	0.23847722
141	0x3e32e028	0.17468321
142	0x3c854aa3	0.016270941
143	0x3deb2b0c	0.1148282
144	0x3e96d15e	0.2945661
145	0x3d8857d5	0.06657378
146	0x3d01c754	0.031684235
147	0x3cb9e727	0.02269323
148	0x3ded2993	0.11580195
149	0x3c05ecf4	0.00817417
150	0x3e156687	0.14589892
151	0x3e6e59a8	0.23276389
152	0x3d88a652	0.06672348
153	0x3d495ca9	0.049160633
154	0x3bbd3fda	0.005775434
155	0x3e164337	0.14674078
156	0x3e81f429	0.25381592
157	0x3c3a6df8	0.011378758
158	0x3f03fe4a	0.5155989
159	0x3e389326	0.18024883
160	0x3cd6f4cb	0.026239773
161	0x3e1057c1	0.14095975
162	0x3dc8428d	0.097783186
163	0x3c6ef7a2	0.014585407
164	0x3dd08da0	0.10183263
165	0x3dd7696c	0.105181545
166	0x3eb31d4a	0.34983283
167	0x3c749df0	0.014930233
168	0x3ce3797e	0.027767893
169	0x3e5bec7b	0.21476929
170	0x3e59da11	0.21274592
171	0x3b327962	0.0027232994
172	0x3b9801ee	0.004638902
173	0x3ddcfa58	0.10789937
174	0x3d003dda	0.031308986
175	0x3cd07f5d	0.025451357
176	0x3dfa4757	0.12220638
177	0x3d4313f2	0.047626443
178	0x3dab9953	0.08378854
179	0x3e87e393	0.26540813
180	0x3e465391	0.19367816
181	0x3dcccdbb	0.100001775
182	0x3e0942f2	0.13404444
183	0x3e94fe8a	0.29100448
184	0x3d2ece1b	0.042677026
185	0x3e5870f7	0.21136843
186	0x3ed88114	0.4228598
187	0x3eb1bc6c	0.34714067
188	0x3ad8162b	0.0016486099
189	0x3e5b1f82	0.21398738
190	0x3d7c4085	0.061584968
191	0x3bb2afce	0.0054530865
192	0x3cd8f1d7	0.026482506
193	0x3c1532c7	0.009106345
194	0x3ec9a263	0.39381704
195	0x3d15e1b3	0.036592197
196	0x3dfd14db	0.123574935
197	0x3e6ad1ae	0.22931549
198	0x3aec7389	0.0018039803
199	0x3d26a622	0.04068578
200	0x3f031997	0.5121092
201	0x3c0ddeae	0.008659048
202	0x3e4a1ee3	0.19738345
203	0x3e6cbc74	0.23118764
204	0x3ea68aa8	0.3252766
205	0x3ea1916f	0.3155627
206	0x3d68471d	0.056708444
207	0x3d79100f	0.06080633
208	0x3ced2dd5	0.028952518
209	0x3dc2cc3c	0.09511611
210	0x3e5ee882	0.21768382
211	0x3da2a472	0.07941522
212	0x3bb3a5f6	0.0054824306
213	0x3ecf9e81	0.40550616
214	0x3de81157	0.11331432
215	0x3d83e2a6	0.06439714
216	0x3dec15c9	0.11527593
217	0x3e5219c2	0.20517638
218	0x3ec5567e	0.3854255
219	0x3ef9a4c2	0.48758513
220	0x3c36f3f9	0.011166566
221	0x3e9eebe1	0.31039336
222	0x3e3a1ba0	0.181746
223	0x3dd3cc14	0.10341659
224	0x3d900ead	0.07034049
225	0x3cd7c756	0.026340168
226	0x3dc44e3f	0.09585237
227	0x3e21e372	0.1580942
228	0x3ec6ee46	0.38853663
229	0x3ec9d10c	0.39417303
230	0x3e0c17ac	0.13680905
231	0x3e251413	0.16120939
232	0x3f112e07	0.5671086
233	0x3d0e16ac	0.03468959
234	0x3dcbc936	0.09950487
235	0x3d19d097	0.037552442
236	0x3d80c673	0.06287851
237	0x3d184c43	0.037182104
238	0x3d787918	0.06066236
239	0x3de44592	0.11146082
240	0x3d36221b	0.04446612
241	0x3d478cbb	0.048718195
242	0x3d1c5b3c	0.038172945
243	0x3d6a5674	0.057211354
244	0x3b2fafec	0.0026807738
245	0x3e29643c	0.16542143
246	0x3de033ff	0.109474175
247	0x3d025cf4	0.03182693
248	0x3c091765	0.008367394
249	0x3b28c853	0.0025754168
250	0x3ebbf44d	0.36709824
251	0x3e6a6210	0.2288897
252	0x3d8325e1	0.06403709
253	0x3d94d42d	0.07267032
254	0x3e8e5dcb	0.27805933
255	0x3e6efc1a	0.23338357

2.running_var f4 [296]
0	0x3d93f623	0.07224681
1	0x3e370839	0.1787423
2	0x3d2fb2cc	0.042895123
3	0x3bc0c963	0.005883382
4	0x3f0fb66d	0.56137735
5	0x3d2aa388	0.04165986
6	0x3d1db039	0.038498137
7	0x3e223912	0.15842083
8	0x3b8aaa54	0.0042317305
9	0x3e858491	0.26077703
10	0x3c0a24ad	0.008431596
11	0x3c639558	0.013890587
12	0x3d62f2f8	0.055407494
13	0x3f290ac4	0.6603205
14	0x3a70ca0f	0.00091853825
15	0x3e090c0b	0.133835
16	0x3dc3771d	0.095442034
17	0x3eb00fed	0.3438715
18	0x3ed46fb8	0.41491485
19	0x3a3282b2	0.0006809636
20	0x3eebbe17	0.46043465
21	0x3c0b42e0	0.008499831
22	0x3cca9112	0.024727378
23	0x3cc0d5d3	0.02353946
24	0x3dbf05a7	0.0932725
25	0x3d967cec	0.07348046
26	0x3abb483e	0.0014288498
27	0x3bac085e	0.005250021
28	0x3dc30588	0.095225394
29	0x3bc55f3a	0.006023315
30	0x3cac8a51	0.021062048
31	0x3b235d03	0.0024927265
32	0x3e13f28d	0.14447995
33	0x3b465faf	0.0030269434
34	0x3d469f2c	0.048491642
35	0x3ca6d47a	0.020364989
36	0x3c28ca3c	0.010302123
37	0x3c07b103	0.008281949
38	0x3a14a897	0.0005670874
39	0x39ca5d09	0.0003859776
40	0x3d8bbeca	0.068234995
41	0x3e01c627	0.12673245
42	0x3fbbd900	1.4675598
43	0x3d536213	0.051607203
44	0x3cb771db	0.022393158
45	0x3e9fd971	0.31220582
46	0x3e92da7d	0.28682318
47	0x3f426c0b	0.7594611
48	0x3e8341a4	0.25636017
49	0x3c7280ab	0.014801185
50	0x3ceea076	0.029129248
51	0x3cb7be93	0.02242974
52	0x3bffd165	0.007806944
53	0x3b9c492a	0.004769464
54	0x3c0d228f	0.008614196
55	0x3d5f2d76	0.054486714
56	0x3da06c12	0.07833113
57	0x3dd5deaf	0.10442864
58	0x3c28a076	0.010292163
59	0x3d0b5f46	0.034026407
60	0x3e5af385	0.21381958
61	0x3c9d3b39	0.019193279
62	0x3d452a1a	0.048135854
63	0x3c05fb2f	0.008177563
64	0x3b7a8dd9	0.003823152
65	0x3cc1073e	0.023563024
66	0x3ec4d158	0.38440967
67	0x3dafecca	0.08590086
68	0x3da68655	0.081310906
69	0x3c173931	0.009229944
70	0x3d87e175	0.066347994
71	0x3ec96245	0.39332786
72	0x3d7b8756	0.061408363
73	0x3c81e790	0.015857488
74	0x3d3b7e16	0.04577454
75	0x3bc23709	0.005926971
76	0x3d8c5a86	0.068532035
77	0x3bc9dfdc	0.0061607193
78	0x3c0edf0b	0.00872017
79	0x3dc9c694	0.09852329
80	0x3c1647e3	0.009172413
81	0x3c3becae	0.011470003
82	0x3c689939	0.014196687
83	0x3dd7e573	0.10541811
84	0x3bf97fce	0.0076141125
85	0x3a8297c5	0.0009963444
86	0x3bf0fa97	0.0073540914
87	0x3c252a39	0.010080867
88	0x3b1d88dc	0.0024037873
89	0x3e57ebf7	0.21086107
90	0x3c91680d	0.01774981
91	0x3c4250d9	0.011860096
92	0x3c17c9a2	0.009264382
93	0x3e8121cf	0.25221106
94	0x3e304938	0.1721543
95	0x3b5c1524	0.0033581937
96	0x3dfb9cd9	0.12285776
97	0x3cb68dc2	0.022284392
98	0x3e0d109f	0.13775872
99	0x3d941203	0.07229998
100	0x3b9fa43b	0.0048718727
101	0x3ba84815	0.005135546
102	0x3d04662c	0.032324
103	0x3b314cbb	0.0027053792
104	0x396d6223	0.0002263864
105	0x3dfb1418	0.12259692
106	0x3db76155	0.089541115
107	0x3cbaa20e	0.022782352
108	0x3bb41acc	0.0054963585
109	0x3c8d8291	0.017274173
110	0x3c5e0dee	0.013553126
111	0x3e804020	0.25048923
112	0x3ea98c69	0.33114937
113	0x3c6f68c6	0.014612382
114	0x3e021215	0.1270221
115	0x3d1bdc5e	0.038051955
116	0x3d72a7fe	0.05924224
117	0x3ab365b1	0.0013686923
118	0x3e85a3b4	0.26101458
119	0x3d25ca27	0.04047599
120	0x3b0b1077	0.002121953
121	0x3e192cac	0.14958447
122	0x3d34ebc1	0.044170145
123	0x3e24e7dd	0.16104074
124	0x3cab0857	0.020878
125	0x3e846229	0.2585614
126	0x3a0546f5	0.0005084121
127	0x3a842366	0.001008135
128	0x3de8ffdf	0.113769285
129	0x3cfa7106	0.030571472
130	0x3c82a848	0.015949383
131	0x3ceb3945	0.028713832
132	0x3eb4219f	0.351819
133	0x3e913356	0.2835948
134	0x3c241ea2	0.010017069
135	0x3c87f3eb	0.016595801
136	0x3aeda4b2	0.0018130748
137	0x3ce28fbf	0.027656434
138	0x3e475617	0.19466434
139	0x3ec51740	0.384943
140	0x3ee74a4d	0.45173874
141	0x3bdb0e00	0.0066850185
142	0x3aef06c4	0.0018236269
143	0x3d5e366d	0.054251123
144	0x3cad3078	0.021141276
145	0x3ce77265	0.02825279
146	0x3cb5349d	0.022119815
147	0x3c42dbfe	0.011893271
148	0x3ce5dab2	0.028058384
149	0x3bbb6db8	0.0057198666
150	0x3e1b40a9	0.15161385
151	0x3edc6fcf	0.43054053
152	0x3cfb0ef7	0.030646784
153	0x3b33fb2c	0.0027462943
154	0x3b3aab90	0.0028483607
155	0x3e613f4a	0.21996799
156	0x3de544d9	0.11194772
157	0x3c0273b8	0.00796216
158	0x3f032b0a	0.5123755
159	0x3ebd341e	0.36953825
160	0x3b9f8755	0.0048684278
161	0x3e158264	0.14600521
162	0x3d5ef336	0.054431163
163	0x3c0a9887	0.008459217
164	0x3ce769d5	0.028248707
165	0x3c4f06df	0.012635916
166	0x3d8419f7	0.06450265
167	0x3c1b7c0f	0.009490027
168	0x3c89b384	0.016809233
169	0x3ea3a682	0.31962973
170	0x3e95e685	0.29277435
171	0x3a56a96d	0.00081886986
172	0x3b30e7a4	0.0026993537
173	0x3e20219a	0.15637818
174	0x3cc7c789	0.024387138
175	0x3c4bf01f	0.012447386
176	0x3e286f6a	0.16448751
177	0x3d2f6120	0.042817235
178	0x3d5465ca	0.051854886
179	0x3d17f000	0.037094116
180	0x3e8a8280	0.2705269
181	0x3d809f2e	0.06280361
182	0x3def1ea5	0.11675767
183	0x3d01d9e7	0.03170195
184	0x3d180d35	0.03712197
185	0x3e8ce7b1	0.27520517
186	0x3da5c25a	0.0809371
187	0x3d85b1b0	0.06528032
188	0x3a37b251	0.0007007467
189	0x3ea89757	0.32927963
190	0x3cf80943	0.030277854
191	0x3aee5428	0.001818304
192	0x3c8c256d	0.01710769
193	0x3ba860e9	0.0051385057
194	0x3f0543e0	0.52056694
195	0x3c9768d7	0.018482609
196	0x3ddbbb7e	0.10729121
197	0x3c3f0c71	0.011660681
198	0x3a0c0a6a	0.0005342128
199	0x3c57c6f7	0.0131699955
200	0x3b2741be	0.0025521363
201	0x3b742ca8	0.0037258063
202	0x3bcb0b99	0.006196451
203	0x3eacb826	0.33734244
204	0x3e746511	0.23866679
205	0x3df5504c	0.11978206
206	0x3ca5a582	0.020220522
207	0x3ce1862a	0.027529795
208	0x3cc306f7	0.023807032
209	0x3c2573ec	0.010098439
210	0x3d7a47d5	0.06110366
211	0x3d6b4218	0.05743608
212	0x3b799470	0.003808286
213	0x3e3bd211	0.18341853
214	0x3daae5ae	0.08344589
215	0x3b991f23	0.0046729012
216	0x3de61bd4	0.112357765
217	0x3cdc5957	0.02689807
218	0x3db1cb39	0.0868134
219	0x3ca69985	0.020336876
220	0x3b8149e5	0.0039455765
221	0x3d4785c5	0.048711557
222	0x3d2cb2e6	0.0421628
223	0x3d92756f	0.07151305
224	0x3d99ac6c	0.0750359
225	0x3c6dd8f6	0.01451706
226	0x3dfaedbe	0.12252377
227	0x3c584efa	0.013202423
228	0x3e211836	0.15731892
229	0x3eb673d0	0.35635233
230	0x3d51b993	0.051202368
231	0x3e224554	0.15846759
232	0x3eeb9c3e	0.4601764
233	0x3cd1da02	0.02561665
234	0x3d99ebb5	0.07515661
235	0x3d1cd8f7	0.03829285
236	0x3d0586c3	0.032599222
237	0x3c29d4a8	0.010365643
238	0x3b598ccb	0.0033195491
239	0x3e11a62f	0.1422355
240	0x3c64d658	0.013967119
241	0x3d58ad48	0.05289963
242	0x3d181694	0.037130907
243	0x3cc09479	0.023508297
244	0x3ac09551	0.0014692937
245	0x3e0d7056	0.13812384
246	0x3e3b0076	0.18261895
247	0x3cc88e08	0.024481788
248	0x3b184bd0	0.0023238547
249	0x3a976942	0.0011551755
250	0x3df4288f	0.119217984
251	0x3b8cf907	0.0043021473
252	0x3d7a0769	0.061042223
253	0x3d1619cc	0.036645696
254	0x3c7397be	0.014867721
255	0x3eb3f407	0.35147116

3.weight f4 [148, 296, 2, 2]
0	0xbc23c0a3	-0.009994659
1	0x3c9bb6c4	0.019008048
2	0xbbec57d9	-0.0072126207
3	0xbcf20d3e	-0.02954733
4	0xbc70d78a	-0.014699826
5	0x3beb2481	0.0071759825
6	0x3a117ffc	0.0005550382
7	0x3c198aee	0.009371502
8	0x3c2c8ac3	0.01053113
9	0xbadc4a97	-0.0016806897
10	0xbc4d850b	-0.012543927
11	0xbb9f51d5	-0.00486205
12	0x3d50931a	0.050921537
13	0x3d504369	0.050845537
14	0xbc00cc9c	-0.007861283
15	0x3d4cbae6	0.049982928
16	0xbcd81b0c	-0.026380084
17	0xbc1ec0fe	-0.009689568
18	0xbcaeeab0	-0.021352142
19	0x3cdb3cbe	0.026762363
20	0xbc4fc3cb	-0.012680958
21	0x3c219eba	0.0098645035
22	0xbccfed5d	-0.025381738
23	0xbc400515	-0.011719962
24	0xbc98c2f3	-0.018647647
25	0xbaa94834	-0.0012915195
26	0xbda2ee36	-0.079555914
27	0xbd86af1d	-0.06576369
28	0xbc38f134	-0.011287976
29	0x3c3ca4a2	0.011513861
30	0x3cc2ac97	0.023763938
31	0x3c8c0e0b	0.01709654
32	0x3d29e28d	0.04147582
33	0x3d0e9173	0.03480668
34	0x3ce62a41	0.02809632
35	0x3d14d9e0	0.036340594
36	0xbbc2d517	-0.0059458124
37	0x3c2c9f4b	0.010536025
38	0xbda27c25	-0.07933835
39	0xbd39a4f8	-0.045323342
40	0xbc146441	-0.0090571055
41	0xb9faefbc	-0.00047862332
42	0xbabbf08c	-0.0014338656
43	0x3c83f776	0.01610921
44	0x3d03cc91	0.03217751
45	0x3d7be29c	0.06149541
46	0xbcf2b1a9	-0.02962573
47	0xbd3978f7	-0.045281377
48	0xbd5b65b0	-0.053563774
49	0x3b9cd34f	0.004785932
50	0xbd135c1d	-0.035976518
51	0xbcdf81cd	-0.027283574
52	0xbc92f2b1	-0.01793799
53	0xbc9d9039	-0.01923381
54	0xbc95537e	-0.018228289
55	0xbc340d62	-0.010989519
56	0xbd658af4	-0.05604072
57	0x3d0f26f7	0.03494927
58	0xbd49e263	-0.049288165
59	0x3db6c551	0.08924354
60	0xbca96ecb	-0.020682713
61	0xbbfdef1d	-0.007749452
62	0xbc172226	-0.00922445
63	0xbbf0b604	-0.0073459167
64	0xbc46830c	-0.012116205
65	0x3cc3641f	0.023851452
66	0xbbe04b3a	-0.006844905
67	0xbcd2f5da	-0.025751997
68	0xbc64ef78	-0.013973109
69	0xbcc2b2d1	-0.023766907
70	0xbd8d7018	-0.06906146
71	0xbcadbf59	-0.021209406
72	0xbce19cd3	-0.0275406
73	0xbd28207b	-0.0410466
74	0x3d13b583	0.036061775
75	0x3c83ad9f	0.016074
76	0xbd8b716b	-0.06808742
77	0xbd880929	-0.06642372
78	0x3c5777c9	0.013151118
79	0x3c8ac4c0	0.01693952
80	0x3bdae1c4	0.0066797454
81	0xbbb8d3a8	-0.0056404658
82	0xbbb19656	-0.005419533
83	0x3bac37f7	0.005255695
84	0x3cb63c61	0.022245588
85	0x3b715532	0.0036824462
86	0x3cd275b6	0.025690895
87	0xbd05c67f	-0.032660004
88	0x3acf19fb	0.001580059
89	0xbc211892	-0.009832518
90	0xbd1077dd	-0.03527056
91	0x3d0aa8d9	0.033852432
92	0x3cd57573	0.02605698
93	0x3d57c2a6	0.052675866
94	0x3ca6cbff	0.020360945
95	0x3bb7c8e0	0.005608663
96	0x3b7b407b	0.0038337994
97	0xbd136b06	-0.035990737
98	0x3c988fbd	0.018623227
99	0xbcbabb21	-0.022794308
100	0x3c4cd655	0.012502273
101	0x3bc1c033	0.0059128045
102	0x3c8da7c4	0.017291911
103	0x3c736d5f	0.014857619
104	0xbb30d996	-0.002698516
105	0xbd1b7452	-0.03795273
106	0x3b643bf4	0.0034825774
107	0xbb4b9c55	-0.0031068523
108	0xbd10f13a	-0.0353863
109	0x3c936292	0.017991338
110	0x3cce1e89	0.025161045
111	0x3d49a95e	0.049233787
112	0x3d04f8fa	0.032464005
113	0x3d1937cb	0.037406724
114	0x3b8d15a8	0.00430556
115	0x3cae6d33	0.021292305
116	0xbd83288d	-0.06404219
117	0x3d8ac75a	0.067763045
118	0x3c42720f	0.011868014
119	0xbbc4a465	-0.0060010427
120	0xbd272477	-0.04080626
121	0x3c2c9d2f	0.010535522
122	0x3be4816e	0.006973437
123	0x3cfbe238	0.030747518
124	0xbd386427	-0.045017388
125	0xba233c3a	-0.0006226931
126	0xbcf86412	-0.030321155
127	0x3b3fc40a	0.0029261135
128	0xbc8ea3e4	-0.017412134
129	0xbc7db0bc	-0.015484031
130	0xbc6c5589	-0.01442469
131	0x3cd537a2	0.026027504
132	0x3c8836f2	0.016627762
133	0x3d978c23	0.07399776
134	0x3d0ee962	0.03489054
135	0x3c4fa48f	0.012673511
136	0xbd1a5df9	-0.037687276
137	0xbd38c7af	-0.045112308
138	0xbc6cfe03	-0.014464858
139	0xbcbd0af6	-0.023076516
140	0xbad5e008	-0.0016317377
141	0x3c6fb41a	0.014630342
142	0x3cff60f4	0.03117416
143	0x3b4a92e3	0.0030910305
144	0x3b8b4dc5	0.004251214
145	0x3c438ac5	0.011934941
146	0xbc20639d	-0.009789375
147	0x3b349657	0.002755543
148	0xbd77e1a1	-0.06051791
149	0xbd13ac12	-0.03605277
150	0xbc089f76	-0.0083388
151	0xbcdb1572	-0.026743624
152	0xbd9a1f12	-0.075254574
153	0xbbe08aa8	-0.0068524666
154	0x3b2bb3c1	0.002619967
155	0xbc28b42b	-0.010296862
156	0xbd88dd67	-0.06682854
157	0xbb708c25	-0.0036704626
158	0x3d16532b	0.03670041
159	0xbe1efbb1	-0.155257
160	0xbc7d0822	-0.015443834
161	0xbd1f3684	-0.03887035
162	0xbbf7dd4c	-0.0075642224
163	0xbbd45ef5	-0.0064810463
164	0xbc684114	-0.014175672
165	0xbce58e00	-0.028021812
166	0xbc930be7	-0.017950011
167	0xbc691b6f	-0.014227732
168	0xbd3ff3e8	-0.046863467
169	0xbcd75c7f	-0.026289223
170	0xbcf078b4	-0.02935443
171	0xbab72be5	-0.0013974874
172	0xbceab1c2	-0.028649215
173	0x3bd58680	0.006516278
174	0xbd5f60ff	-0.054535862
175	0xbd79298e	-0.060830645
176	0x3d362506	0.044468902
177	0xbc15c74d	-0.009141755
178	0x3c85bd6f	0.01632568
179	0xbc026399	-0.007958316
180	0xbd456e6e	-0.048201017
181	0xbd096625	-0.03354468
182	0xbd3918ca	-0.045189656
183	0x3cc6bdf5	0.0242605
184	0xbacde459	-0.0015708312
185	0xbc68ef8b	-0.014217268
186	0xbba5f051	-0.0050640483
187	0x3c597468	0.013272382
188	0xbc821a65	-0.015881727
189	0xbacd62ce	-0.0015669705
190	0x3d068322	0.0328399
191	0x3d480511	0.048832957
192	0x3cb09064	0.021553226
193	0xbd2888ec	-0.041146204
194	0x3bf4d7cc	0.007472014
195	0x3c925a33	0.017865276
196	0xbbabc288	-0.005241696
197	0x3c735aed	0.014853221
198	0xbb8d86a3	-0.0043190285
199	0x3baf5b63	0.0053514703
200	0xbd4fe33c	-0.050753817
201	0xbdab190c	-0.08354387
202	0xbd82ee9f	-0.063931696
203	0xbd959f06	-0.07305722
204	0xbcc887c8	-0.024478808
205	0x3b0445f2	0.0020183292
206	0xbcc78036	-0.024353128
207	0xbbec6067	-0.0072136405
208	0xbc89fe03	-0.016844755
209	0x3cf243f6	0.029573422
210	0x3d23aaff	0.039957996
211	0xbca716f7	-0.020396693
212	0xbcd98641	-0.026553275
213	0xbcf41085	-0.029793033
214	0x3c9ff92f	0.019528
215	0xbd89215f	-0.06695818
216	0xbc5d2940	-0.013498604
217	0xbcb42e5d	-0.021994764
218	0x3be91596	0.007113169
219	0xbd4ecfc5	-0.050491113
220	0x3c6790a2	0.014133604
221	0x3d25462a	0.040350117
222	0xbbb61420	-0.0055565983
223	0x3cc560ea	0.024094064
224	0x3d21890d	0.039437342
225	0xbcb8a590	-0.022539884
226	0x3d2f6142	0.04281736
227	0x3c69ff06	0.014281994
228	0xba54aca7	-0.00081128854
229	0x3cbe57f2	0.023235295
230	0x3bfdfe27	0.0077512446
231	0x3d051b16	0.032496534
232	0x3d4d6d39	0.05015299
233	0x3d967d62	0.073481336
234	0x3d58d120	0.052933812
235	0x3de6efe8	0.11276227
236	0x3cf1c9fd	0.02951526
237	0xba614b8d	-0.0008594327
238	0x3d840fcd	0.06448326
239	0x3cd77d9c	0.026305012
240	0xbcc76d35	-0.024344066
241	0xbd30612b	-0.043061417
242	0x3c206bf2	0.009791361
243	0xbcf523d6	-0.029924314
244	0x3cadc64e	0.021212723
245	0x3cb05750	0.021526009
246	0x3d11a79d	0.03556024
247	0xbb9097b4	-0.0044126157
248	0x3d46e9d9	0.04856286
249	0xbc362177	-0.011116377
250	0x3d1c9008	0.038223296
251	0x3d10c4c7	0.03534391
252	0xbdd5cb60	-0.10439181
253	0xbd70bc4f	-0.058773335
254	0xbceba047	-0.02876295
255	0xbdcaa07a	-0.0989389
